…
I0909 19:19:46.733638 15712 net.cpp:322] The NetState phase (0) differed from the phase (1) specified by a rule in layer accuracy/top1
I0909 19:19:46.733644 15712 net.cpp:322] The NetState phase (0) differed from the phase (1) specified by a rule in layer accuracy/top5
I0909 19:19:46.733790 15712 net.cpp:58] Initializing net from parameters: 
name: "VGG_ILSVRC_16_layers"
state {
  phase: TRAIN
  level: 0
  stage: ""
}
layer {
  name: "data"
  type: "ImageData"
  top: "data"
  top: "label"
  include {
    phase: TRAIN
  }
  transform_param {
    crop_size: 224
  }
  image_data_param {
    source: "images/list.txt"
    batch_size: 16
  }
}
layer {
  name: "conv1_1"
  type: "Convolution"
  bottom: "data"
  top: "conv1_1"
  param {
    lr_mult: 0.001
  }
  param {
    lr_mult: 0.001
  }
  convolution_param {
    num_output: 64
    pad: 1
    kernel_size: 3
  }
}
layer {
  name: "relu1_1"
  type: "ReLU"
  bottom: "conv1_1"
  top: "conv1_1"
}
layer {
  name: "conv1_2"
  type: "Convolution"
  bottom: "conv1_1"
  top: "conv1_2"
  param {
    lr_mult: 0.001
  }
  param {
    lr_mult: 0.001
  }
  convolution_param {
    num_output: 64
    pad: 1
    kernel_size: 3
  }
}
layer {
  name: "relu1_2"
  type: "ReLU"
  bottom: "conv1_2"
  top: "conv1_2"
}
layer {
  name: "pool1"
  type: "Pooling"
  bottom: "conv1_2"
  top: "pool1"
  pooling_param {
    pool: MAX
    kernel_size: 2
    stride: 2
  }
}
layer {
  name: "conv2_1"
  type: "Convolution"
  bottom: "pool1"
  top: "conv2_1"
  param {
    lr_mult: 0.001
  }
  param {
    lr_mult: 0.001
  }
  convolution_param {
    num_output: 128
    pad: 1
    kernel_size: 3
  }
}
layer {
  name: "relu2_1"
  type: "ReLU"
  bottom: "conv2_1"
  top: "conv2_1"
}
layer {
  name: "conv2_2"
  type: "Convolution"
  bottom: "conv2_1"
  top: "conv2_2"
  param {
    lr_mult: 0.001
  }
  param {
    lr_mult: 0.001
  }
  convolution_param {
    num_output: 128
    pad: 1
    kernel_size: 3
  }
}
layer {
  name: "relu2_2"
  type: "ReLU"
  bottom: "conv2_2"
  top: "conv2_2"
}
layer {
  name: "pool2"
  type: "Pooling"
  bottom: "conv2_2"
  top: "pool2"
  pooling_param {
    pool: MAX
    kernel_size: 2
    stride: 2
  }
}
layer {
  name: "conv3_1"
  type: "Convolution"
  bottom: "pool2"
  top: "conv3_1"
  param {
    lr_mult: 0.001
  }
  param {
    lr_mult: 0.001
  }
  convolution_param {
    num_output: 256
    pad: 1
    kernel_size: 3
  }
}
layer {
  name: "relu3_1"
  type: "ReLU"
  bottom: "conv3_1"
  top: "conv3_1"
}
layer {
  name: "conv3_2"
  type: "Convolution"
  bottom: "conv3_1"
  top: "conv3_2"
  param {
    lr_mult: 0.001
  }
  param {
    lr_mult: 0.001
  }
  convolution_param {
    num_output: 256
    pad: 1
    kernel_size: 3
  }
}
layer {
  name: "relu3_2"
  type: "ReLU"
  bottom: "conv3_2"
  top: "conv3_2"
}
layer {
  name: "conv3_3"
  type: "Convolution"
  bottom: "conv3_2"
  top: "conv3_3"
  param {
    lr_mult: 0.001
  }
  param {
    lr_mult: 0.001
  }
  convolution_param {
    num_output: 256
    pad: 1
    kernel_size: 3
  }
}
layer {
  name: "relu3_3"
  type: "ReLU"
  bottom: "conv3_3"
  top: "conv3_3"
}
layer {
  name: "pool3"
  type: "Pooling"
  bottom: "conv3_3"
  top: "pool3"
  pooling_param {
    pool: MAX
    kernel_size: 2
    stride: 2
  }
}
layer {
  name: "conv4_1"
  type: "Convolution"
  bottom: "pool3"
  top: "conv4_1"
  param {
    lr_mult: 0.001
  }
  param {
    lr_mult: 0.001
  }
  convolution_param {
    num_output: 512
    pad: 1
    kernel_size: 3
  }
}
layer {
  name: "relu4_1"
  type: "ReLU"
  bottom: "conv4_1"
  top: "conv4_1"
}
layer {
  name: "conv4_2"
  type: "Convolution"
  bottom: "conv4_1"
  top: "conv4_2"
  param {
    lr_mult: 0.001
  }
  param {
    lr_mult: 0.001
  }
  convolution_param {
    num_output: 512
    pad: 1
    kernel_size: 3
  }
}
layer {
  name: "relu4_2"
  type: "ReLU"
  bottom: "conv4_2"
  top: "conv4_2"
}
layer {
  name: "conv4_3"
  type: "Convolution"
  bottom: "conv4_2"
  top: "conv4_3"
  param {
    lr_mult: 0.001
  }
  param {
    lr_mult: 0.001
  }
  convolution_param {
    num_output: 512
    pad: 1
    kernel_size: 3
  }
}
layer {
  name: "relu4_3"
  type: "ReLU"
  bottom: "conv4_3"
  top: "conv4_3"
}
layer {
  name: "pool4"
  type: "Pooling"
  bottom: "conv4_3"
  top: "pool4"
  pooling_param {
    pool: MAX
    kernel_size: 2
    stride: 2
  }
}
layer {
  name: "conv5_1"
  type: "Convolution"
  bottom: "pool4"
  top: "conv5_1"
  param {
    lr_mult: 0.001
  }
  param {
    lr_mult: 0.001
  }
  convolution_param {
    num_output: 512
    pad: 1
    kernel_size: 3
  }
}
layer {
  name: "relu5_1"
  type: "ReLU"
  bottom: "conv5_1"
  top: "conv5_1"
}
layer {
  name: "conv5_2"
  type: "Convolution"
  bottom: "conv5_1"
  top: "conv5_2"
  param {
    lr_mult: 0.001
  }
  param {
    lr_mult: 0.001
  }
  convolution_param {
    num_output: 512
    pad: 1
    kernel_size: 3
  }
}
layer {
  name: "relu5_2"
  type: "ReLU"
  bottom: "conv5_2"
  top: "conv5_2"
}
layer {
  name: "conv5_3"
  type: "Convolution"
  bottom: "conv5_2"
  top: "conv5_3"
  param {
    lr_mult: 0.001
  }
  param {
    lr_mult: 0.001
  }
  convolution_param {
    num_output: 512
    pad: 1
    kernel_size: 3
  }
}
layer {
  name: "relu5_3"
  type: "ReLU"
  bottom: "conv5_3"
  top: "conv5_3"
}
layer {
  name: "pool5"
  type: "Pooling"
  bottom: "conv5_3"
  top: "pool5"
  pooling_param {
    pool: MAX
    kernel_size: 2
    stride: 2
  }
}
layer {
  name: "fc6"
  type: "InnerProduct"
  bottom: "pool5"
  top: "fc6"
  param {
    lr_mult: 0.001
  }
  param {
    lr_mult: 0.001
  }
  inner_product_param {
    num_output: 4096
  }
}
layer {
  name: "relu6"
  type: "ReLU"
  bottom: "fc6"
  top: "fc6"
}
layer {
  name: "drop6"
  type: "Dropout"
  bottom: "fc6"
  top: "fc6"
  dropout_param {
    dropout_ratio: 0.5
  }
}
layer {
  name: "fc7"
  type: "InnerProduct"
  bottom: "fc6"
  top: "fc7"
  param {
    lr_mult: 0.001
  }
  param {
    lr_mult: 0.001
  }
  inner_product_param {
    num_output: 4096
  }
}
layer {
  name: "relu7"
  type: "ReLU"
  bottom: "fc7"
  top: "fc7"
}
layer {
  name: "drop7"
  type: "Dropout"
  bottom: "fc7"
  top: "fc7"
  dropout_param {
    dropout_ratio: 0.5
  }
}
layer {
  name: "fc8"
  type: "InnerProduct"
  bottom: "fc7"
  top: "fc8"
  param {
    lr_mult: 0.001
  }
  param {
    lr_mult: 0.001
  }
  inner_product_param {
    num_output: 1000
  }
}
layer {
  name: "loss"
  type: "SoftmaxWithLoss"
  bottom: "fc8"
  bottom: "label"
  top: "loss/loss"
}
I0909 19:19:46.734040 15712 layer_factory.hpp:77] Creating layer data
I0909 19:19:46.734073 15712 net.cpp:100] Creating Layer data
I0909 19:19:46.734082 15712 net.cpp:408] data -> data
I0909 19:19:46.734102 15712 net.cpp:408] data -> label
I0909 19:19:46.734448 15712 image_data_layer.cpp:38] Opening file images/list.txt
I0909 19:19:46.734488 15712 image_data_layer.cpp:58] A total of 16 images.
I0909 19:19:46.742501 15712 image_data_layer.cpp:85] output data size: 16,3,224,224
I0909 19:19:46.755460 15712 net.cpp:150] Setting up data
I0909 19:19:46.755494 15712 net.cpp:157] Top shape: 16 3 224 224 (2408448)
I0909 19:19:46.755501 15712 net.cpp:157] Top shape: 16 (16)
I0909 19:19:46.755504 15712 net.cpp:165] Memory required for data: 9633856
I0909 19:19:46.755512 15712 layer_factory.hpp:77] Creating layer conv1_1
I0909 19:19:46.755551 15712 net.cpp:100] Creating Layer conv1_1
I0909 19:19:46.755559 15712 net.cpp:434] conv1_1 <- data
I0909 19:19:46.755573 15712 net.cpp:408] conv1_1 -> conv1_1
I0909 19:19:46.944466 15712 net.cpp:150] Setting up conv1_1
I0909 19:19:46.944497 15712 net.cpp:157] Top shape: 16 64 224 224 (51380224)
I0909 19:19:46.944501 15712 net.cpp:165] Memory required for data: 215154752
I0909 19:19:46.944519 15712 layer_factory.hpp:77] Creating layer relu1_1
I0909 19:19:46.944532 15712 net.cpp:100] Creating Layer relu1_1
I0909 19:19:46.944540 15712 net.cpp:434] relu1_1 <- conv1_1
I0909 19:19:46.944547 15712 net.cpp:395] relu1_1 -> conv1_1 (in-place)
I0909 19:19:46.944813 15712 net.cpp:150] Setting up relu1_1
I0909 19:19:46.944826 15712 net.cpp:157] Top shape: 16 64 224 224 (51380224)
I0909 19:19:46.944830 15712 net.cpp:165] Memory required for data: 420675648
I0909 19:19:46.944834 15712 layer_factory.hpp:77] Creating layer conv1_2
I0909 19:19:46.944844 15712 net.cpp:100] Creating Layer conv1_2
I0909 19:19:46.944850 15712 net.cpp:434] conv1_2 <- conv1_1
I0909 19:19:46.944859 15712 net.cpp:408] conv1_2 -> conv1_2
I0909 19:19:46.945809 15712 net.cpp:150] Setting up conv1_2
I0909 19:19:46.945822 15712 net.cpp:157] Top shape: 16 64 224 224 (51380224)
I0909 19:19:46.945827 15712 net.cpp:165] Memory required for data: 626196544
I0909 19:19:46.945837 15712 layer_factory.hpp:77] Creating layer relu1_2
I0909 19:19:46.945843 15712 net.cpp:100] Creating Layer relu1_2
I0909 19:19:46.945848 15712 net.cpp:434] relu1_2 <- conv1_2
I0909 19:19:46.945857 15712 net.cpp:395] relu1_2 -> conv1_2 (in-place)
I0909 19:19:46.945991 15712 net.cpp:150] Setting up relu1_2
I0909 19:19:46.946002 15712 net.cpp:157] Top shape: 16 64 224 224 (51380224)
I0909 19:19:46.946007 15712 net.cpp:165] Memory required for data: 831717440
I0909 19:19:46.946012 15712 layer_factory.hpp:77] Creating layer pool1
I0909 19:19:46.946022 15712 net.cpp:100] Creating Layer pool1
I0909 19:19:46.946029 15712 net.cpp:434] pool1 <- conv1_2
I0909 19:19:46.946038 15712 net.cpp:408] pool1 -> pool1
I0909 19:19:46.946087 15712 net.cpp:150] Setting up pool1
I0909 19:19:46.946096 15712 net.cpp:157] Top shape: 16 64 112 112 (12845056)
I0909 19:19:46.946101 15712 net.cpp:165] Memory required for data: 883097664
I0909 19:19:46.946106 15712 layer_factory.hpp:77] Creating layer conv2_1
I0909 19:19:46.946116 15712 net.cpp:100] Creating Layer conv2_1
I0909 19:19:46.946125 15712 net.cpp:434] conv2_1 <- pool1
I0909 19:19:46.946132 15712 net.cpp:408] conv2_1 -> conv2_1
I0909 19:19:46.947762 15712 net.cpp:150] Setting up conv2_1
I0909 19:19:46.947777 15712 net.cpp:157] Top shape: 16 128 112 112 (25690112)
I0909 19:19:46.947780 15712 net.cpp:165] Memory required for data: 985858112
I0909 19:19:46.947789 15712 layer_factory.hpp:77] Creating layer relu2_1
I0909 19:19:46.947795 15712 net.cpp:100] Creating Layer relu2_1
I0909 19:19:46.947801 15712 net.cpp:434] relu2_1 <- conv2_1
I0909 19:19:46.947808 15712 net.cpp:395] relu2_1 -> conv2_1 (in-place)
I0909 19:19:46.948057 15712 net.cpp:150] Setting up relu2_1
I0909 19:19:46.948071 15712 net.cpp:157] Top shape: 16 128 112 112 (25690112)
I0909 19:19:46.948073 15712 net.cpp:165] Memory required for data: 1088618560
I0909 19:19:46.948078 15712 layer_factory.hpp:77] Creating layer conv2_2
I0909 19:19:46.948087 15712 net.cpp:100] Creating Layer conv2_2
I0909 19:19:46.948091 15712 net.cpp:434] conv2_2 <- conv2_1
I0909 19:19:46.948097 15712 net.cpp:408] conv2_2 -> conv2_2
I0909 19:19:46.948966 15712 net.cpp:150] Setting up conv2_2
I0909 19:19:46.948978 15712 net.cpp:157] Top shape: 16 128 112 112 (25690112)
I0909 19:19:46.948982 15712 net.cpp:165] Memory required for data: 1191379008
I0909 19:19:46.948989 15712 layer_factory.hpp:77] Creating layer relu2_2
I0909 19:19:46.948997 15712 net.cpp:100] Creating Layer relu2_2
I0909 19:19:46.949002 15712 net.cpp:434] relu2_2 <- conv2_2
I0909 19:19:46.949008 15712 net.cpp:395] relu2_2 -> conv2_2 (in-place)
I0909 19:19:46.949262 15712 net.cpp:150] Setting up relu2_2
I0909 19:19:46.949275 15712 net.cpp:157] Top shape: 16 128 112 112 (25690112)
I0909 19:19:46.949296 15712 net.cpp:165] Memory required for data: 1294139456
I0909 19:19:46.949301 15712 layer_factory.hpp:77] Creating layer pool2
I0909 19:19:46.949308 15712 net.cpp:100] Creating Layer pool2
I0909 19:19:46.949313 15712 net.cpp:434] pool2 <- conv2_2
I0909 19:19:46.949321 15712 net.cpp:408] pool2 -> pool2
I0909 19:19:46.949359 15712 net.cpp:150] Setting up pool2
I0909 19:19:46.949367 15712 net.cpp:157] Top shape: 16 128 56 56 (6422528)
I0909 19:19:46.949371 15712 net.cpp:165] Memory required for data: 1319829568
I0909 19:19:46.949378 15712 layer_factory.hpp:77] Creating layer conv3_1
I0909 19:19:46.949386 15712 net.cpp:100] Creating Layer conv3_1
I0909 19:19:46.949391 15712 net.cpp:434] conv3_1 <- pool2
I0909 19:19:46.949398 15712 net.cpp:408] conv3_1 -> conv3_1
I0909 19:19:46.950829 15712 net.cpp:150] Setting up conv3_1
I0909 19:19:46.950844 15712 net.cpp:157] Top shape: 16 256 56 56 (12845056)
I0909 19:19:46.950848 15712 net.cpp:165] Memory required for data: 1371209792
I0909 19:19:46.950860 15712 layer_factory.hpp:77] Creating layer relu3_1
I0909 19:19:46.950867 15712 net.cpp:100] Creating Layer relu3_1
I0909 19:19:46.950872 15712 net.cpp:434] relu3_1 <- conv3_1
I0909 19:19:46.950880 15712 net.cpp:395] relu3_1 -> conv3_1 (in-place)
I0909 19:19:46.951019 15712 net.cpp:150] Setting up relu3_1
I0909 19:19:46.951028 15712 net.cpp:157] Top shape: 16 256 56 56 (12845056)
I0909 19:19:46.951033 15712 net.cpp:165] Memory required for data: 1422590016
I0909 19:19:46.951038 15712 layer_factory.hpp:77] Creating layer conv3_2
I0909 19:19:46.951047 15712 net.cpp:100] Creating Layer conv3_2
I0909 19:19:46.951052 15712 net.cpp:434] conv3_2 <- conv3_1
I0909 19:19:46.951067 15712 net.cpp:408] conv3_2 -> conv3_2
I0909 19:19:46.952934 15712 net.cpp:150] Setting up conv3_2
I0909 19:19:46.952947 15712 net.cpp:157] Top shape: 16 256 56 56 (12845056)
I0909 19:19:46.952952 15712 net.cpp:165] Memory required for data: 1473970240
I0909 19:19:46.952961 15712 layer_factory.hpp:77] Creating layer relu3_2
I0909 19:19:46.952968 15712 net.cpp:100] Creating Layer relu3_2
I0909 19:19:46.952975 15712 net.cpp:434] relu3_2 <- conv3_2
I0909 19:19:46.952981 15712 net.cpp:395] relu3_2 -> conv3_2 (in-place)
I0909 19:19:46.953233 15712 net.cpp:150] Setting up relu3_2
I0909 19:19:46.953245 15712 net.cpp:157] Top shape: 16 256 56 56 (12845056)
I0909 19:19:46.953250 15712 net.cpp:165] Memory required for data: 1525350464
I0909 19:19:46.953256 15712 layer_factory.hpp:77] Creating layer conv3_3
I0909 19:19:46.953265 15712 net.cpp:100] Creating Layer conv3_3
I0909 19:19:46.953270 15712 net.cpp:434] conv3_3 <- conv3_2
I0909 19:19:46.953277 15712 net.cpp:408] conv3_3 -> conv3_3
I0909 19:19:46.955018 15712 net.cpp:150] Setting up conv3_3
I0909 19:19:46.955032 15712 net.cpp:157] Top shape: 16 256 56 56 (12845056)
I0909 19:19:46.955037 15712 net.cpp:165] Memory required for data: 1576730688
I0909 19:19:46.955046 15712 layer_factory.hpp:77] Creating layer relu3_3
I0909 19:19:46.955055 15712 net.cpp:100] Creating Layer relu3_3
I0909 19:19:46.955070 15712 net.cpp:434] relu3_3 <- conv3_3
I0909 19:19:46.955077 15712 net.cpp:395] relu3_3 -> conv3_3 (in-place)
I0909 19:19:46.955332 15712 net.cpp:150] Setting up relu3_3
I0909 19:19:46.955343 15712 net.cpp:157] Top shape: 16 256 56 56 (12845056)
I0909 19:19:46.955348 15712 net.cpp:165] Memory required for data: 1628110912
I0909 19:19:46.955354 15712 layer_factory.hpp:77] Creating layer pool3
I0909 19:19:46.955363 15712 net.cpp:100] Creating Layer pool3
I0909 19:19:46.955368 15712 net.cpp:434] pool3 <- conv3_3
I0909 19:19:46.955374 15712 net.cpp:408] pool3 -> pool3
I0909 19:19:46.955413 15712 net.cpp:150] Setting up pool3
I0909 19:19:46.955420 15712 net.cpp:157] Top shape: 16 256 28 28 (3211264)
I0909 19:19:46.955426 15712 net.cpp:165] Memory required for data: 1640955968
I0909 19:19:46.955432 15712 layer_factory.hpp:77] Creating layer conv4_1
I0909 19:19:46.955441 15712 net.cpp:100] Creating Layer conv4_1
I0909 19:19:46.955446 15712 net.cpp:434] conv4_1 <- pool3
I0909 19:19:46.955452 15712 net.cpp:408] conv4_1 -> conv4_1
I0909 19:19:46.958721 15712 net.cpp:150] Setting up conv4_1
I0909 19:19:46.958745 15712 net.cpp:157] Top shape: 16 512 28 28 (6422528)
I0909 19:19:46.958748 15712 net.cpp:165] Memory required for data: 1666646080
I0909 19:19:46.958756 15712 layer_factory.hpp:77] Creating layer relu4_1
I0909 19:19:46.958765 15712 net.cpp:100] Creating Layer relu4_1
I0909 19:19:46.958770 15712 net.cpp:434] relu4_1 <- conv4_1
I0909 19:19:46.958778 15712 net.cpp:395] relu4_1 -> conv4_1 (in-place)
I0909 19:19:46.958925 15712 net.cpp:150] Setting up relu4_1
I0909 19:19:46.958935 15712 net.cpp:157] Top shape: 16 512 28 28 (6422528)
I0909 19:19:46.958940 15712 net.cpp:165] Memory required for data: 1692336192
I0909 19:19:46.958945 15712 layer_factory.hpp:77] Creating layer conv4_2
I0909 19:19:46.958956 15712 net.cpp:100] Creating Layer conv4_2
I0909 19:19:46.958962 15712 net.cpp:434] conv4_2 <- conv4_1
I0909 19:19:46.958969 15712 net.cpp:408] conv4_2 -> conv4_2
I0909 19:19:46.963815 15712 net.cpp:150] Setting up conv4_2
I0909 19:19:46.963842 15712 net.cpp:157] Top shape: 16 512 28 28 (6422528)
I0909 19:19:46.963846 15712 net.cpp:165] Memory required for data: 1718026304
I0909 19:19:46.963860 15712 layer_factory.hpp:77] Creating layer relu4_2
I0909 19:19:46.963870 15712 net.cpp:100] Creating Layer relu4_2
I0909 19:19:46.963876 15712 net.cpp:434] relu4_2 <- conv4_2
I0909 19:19:46.963884 15712 net.cpp:395] relu4_2 -> conv4_2 (in-place)
I0909 19:19:46.964144 15712 net.cpp:150] Setting up relu4_2
I0909 19:19:46.964157 15712 net.cpp:157] Top shape: 16 512 28 28 (6422528)
I0909 19:19:46.964160 15712 net.cpp:165] Memory required for data: 1743716416
I0909 19:19:46.964165 15712 layer_factory.hpp:77] Creating layer conv4_3
I0909 19:19:46.964174 15712 net.cpp:100] Creating Layer conv4_3
I0909 19:19:46.964179 15712 net.cpp:434] conv4_3 <- conv4_2
I0909 19:19:46.964187 15712 net.cpp:408] conv4_3 -> conv4_3
I0909 19:19:46.969313 15712 net.cpp:150] Setting up conv4_3
I0909 19:19:46.969341 15712 net.cpp:157] Top shape: 16 512 28 28 (6422528)
I0909 19:19:46.969347 15712 net.cpp:165] Memory required for data: 1769406528
I0909 19:19:46.969357 15712 layer_factory.hpp:77] Creating layer relu4_3
I0909 19:19:46.969368 15712 net.cpp:100] Creating Layer relu4_3
I0909 19:19:46.969377 15712 net.cpp:434] relu4_3 <- conv4_3
I0909 19:19:46.969384 15712 net.cpp:395] relu4_3 -> conv4_3 (in-place)
I0909 19:19:46.969651 15712 net.cpp:150] Setting up relu4_3
I0909 19:19:46.969663 15712 net.cpp:157] Top shape: 16 512 28 28 (6422528)
I0909 19:19:46.969667 15712 net.cpp:165] Memory required for data: 1795096640
I0909 19:19:46.969671 15712 layer_factory.hpp:77] Creating layer pool4
I0909 19:19:46.969679 15712 net.cpp:100] Creating Layer pool4
I0909 19:19:46.969683 15712 net.cpp:434] pool4 <- conv4_3
I0909 19:19:46.969691 15712 net.cpp:408] pool4 -> pool4
I0909 19:19:46.969735 15712 net.cpp:150] Setting up pool4
I0909 19:19:46.969743 15712 net.cpp:157] Top shape: 16 512 14 14 (1605632)
I0909 19:19:46.969746 15712 net.cpp:165] Memory required for data: 1801519168
I0909 19:19:46.969750 15712 layer_factory.hpp:77] Creating layer conv5_1
I0909 19:19:46.969763 15712 net.cpp:100] Creating Layer conv5_1
I0909 19:19:46.969769 15712 net.cpp:434] conv5_1 <- pool4
I0909 19:19:46.969777 15712 net.cpp:408] conv5_1 -> conv5_1
I0909 19:19:46.974953 15712 net.cpp:150] Setting up conv5_1
I0909 19:19:46.974982 15712 net.cpp:157] Top shape: 16 512 14 14 (1605632)
I0909 19:19:46.974987 15712 net.cpp:165] Memory required for data: 1807941696
I0909 19:19:46.974995 15712 layer_factory.hpp:77] Creating layer relu5_1
I0909 19:19:46.975008 15712 net.cpp:100] Creating Layer relu5_1
I0909 19:19:46.975015 15712 net.cpp:434] relu5_1 <- conv5_1
I0909 19:19:46.975023 15712 net.cpp:395] relu5_1 -> conv5_1 (in-place)
I0909 19:19:46.975186 15712 net.cpp:150] Setting up relu5_1
I0909 19:19:46.975198 15712 net.cpp:157] Top shape: 16 512 14 14 (1605632)
I0909 19:19:46.975203 15712 net.cpp:165] Memory required for data: 1814364224
I0909 19:19:46.975208 15712 layer_factory.hpp:77] Creating layer conv5_2
I0909 19:19:46.975239 15712 net.cpp:100] Creating Layer conv5_2
I0909 19:19:46.975244 15712 net.cpp:434] conv5_2 <- conv5_1
I0909 19:19:46.975252 15712 net.cpp:408] conv5_2 -> conv5_2
I0909 19:19:46.980121 15712 net.cpp:150] Setting up conv5_2
I0909 19:19:46.980147 15712 net.cpp:157] Top shape: 16 512 14 14 (1605632)
I0909 19:19:46.980152 15712 net.cpp:165] Memory required for data: 1820786752
I0909 19:19:46.980164 15712 layer_factory.hpp:77] Creating layer relu5_2
I0909 19:19:46.980172 15712 net.cpp:100] Creating Layer relu5_2
I0909 19:19:46.980178 15712 net.cpp:434] relu5_2 <- conv5_2
I0909 19:19:46.980186 15712 net.cpp:395] relu5_2 -> conv5_2 (in-place)
I0909 19:19:46.980445 15712 net.cpp:150] Setting up relu5_2
I0909 19:19:46.980458 15712 net.cpp:157] Top shape: 16 512 14 14 (1605632)
I0909 19:19:46.980463 15712 net.cpp:165] Memory required for data: 1827209280
I0909 19:19:46.980468 15712 layer_factory.hpp:77] Creating layer conv5_3
I0909 19:19:46.980479 15712 net.cpp:100] Creating Layer conv5_3
I0909 19:19:46.980484 15712 net.cpp:434] conv5_3 <- conv5_2
I0909 19:19:46.980492 15712 net.cpp:408] conv5_3 -> conv5_3
I0909 19:19:46.985193 15712 net.cpp:150] Setting up conv5_3
I0909 19:19:46.985221 15712 net.cpp:157] Top shape: 16 512 14 14 (1605632)
I0909 19:19:46.985225 15712 net.cpp:165] Memory required for data: 1833631808
I0909 19:19:46.985235 15712 layer_factory.hpp:77] Creating layer relu5_3
I0909 19:19:46.985247 15712 net.cpp:100] Creating Layer relu5_3
I0909 19:19:46.985254 15712 net.cpp:434] relu5_3 <- conv5_3
I0909 19:19:46.985261 15712 net.cpp:395] relu5_3 -> conv5_3 (in-place)
I0909 19:19:46.985529 15712 net.cpp:150] Setting up relu5_3
I0909 19:19:46.985541 15712 net.cpp:157] Top shape: 16 512 14 14 (1605632)
I0909 19:19:46.985545 15712 net.cpp:165] Memory required for data: 1840054336
I0909 19:19:46.985549 15712 layer_factory.hpp:77] Creating layer pool5
I0909 19:19:46.985558 15712 net.cpp:100] Creating Layer pool5
I0909 19:19:46.985561 15712 net.cpp:434] pool5 <- conv5_3
I0909 19:19:46.985569 15712 net.cpp:408] pool5 -> pool5
I0909 19:19:46.985620 15712 net.cpp:150] Setting up pool5
I0909 19:19:46.985627 15712 net.cpp:157] Top shape: 16 512 7 7 (401408)
I0909 19:19:46.985632 15712 net.cpp:165] Memory required for data: 1841659968
I0909 19:19:46.985638 15712 layer_factory.hpp:77] Creating layer fc6
I0909 19:19:46.985658 15712 net.cpp:100] Creating Layer fc6
I0909 19:19:46.985663 15712 net.cpp:434] fc6 <- pool5
I0909 19:19:46.985671 15712 net.cpp:408] fc6 -> fc6
I0909 19:19:47.193140 15712 net.cpp:150] Setting up fc6
I0909 19:19:47.193176 15712 net.cpp:157] Top shape: 16 4096 (65536)
I0909 19:19:47.193181 15712 net.cpp:165] Memory required for data: 1841922112
I0909 19:19:47.193192 15712 layer_factory.hpp:77] Creating layer relu6
I0909 19:19:47.193202 15712 net.cpp:100] Creating Layer relu6
I0909 19:19:47.193209 15712 net.cpp:434] relu6 <- fc6
I0909 19:19:47.193218 15712 net.cpp:395] relu6 -> fc6 (in-place)
I0909 19:19:47.193444 15712 net.cpp:150] Setting up relu6
I0909 19:19:47.193455 15712 net.cpp:157] Top shape: 16 4096 (65536)
I0909 19:19:47.193460 15712 net.cpp:165] Memory required for data: 1842184256
I0909 19:19:47.193464 15712 layer_factory.hpp:77] Creating layer drop6
I0909 19:19:47.193482 15712 net.cpp:100] Creating Layer drop6
I0909 19:19:47.193488 15712 net.cpp:434] drop6 <- fc6
I0909 19:19:47.193496 15712 net.cpp:395] drop6 -> fc6 (in-place)
I0909 19:19:47.193532 15712 net.cpp:150] Setting up drop6
I0909 19:19:47.193541 15712 net.cpp:157] Top shape: 16 4096 (65536)
I0909 19:19:47.193545 15712 net.cpp:165] Memory required for data: 1842446400
I0909 19:19:47.193552 15712 layer_factory.hpp:77] Creating layer fc7
I0909 19:19:47.193560 15712 net.cpp:100] Creating Layer fc7
I0909 19:19:47.193567 15712 net.cpp:434] fc7 <- fc6
I0909 19:19:47.193574 15712 net.cpp:408] fc7 -> fc7
I0909 19:19:47.224802 15712 net.cpp:150] Setting up fc7
I0909 19:19:47.224834 15712 net.cpp:157] Top shape: 16 4096 (65536)
I0909 19:19:47.224839 15712 net.cpp:165] Memory required for data: 1842708544
I0909 19:19:47.224877 15712 layer_factory.hpp:77] Creating layer relu7
I0909 19:19:47.224890 15712 net.cpp:100] Creating Layer relu7
I0909 19:19:47.224897 15712 net.cpp:434] relu7 <- fc7
I0909 19:19:47.224905 15712 net.cpp:395] relu7 -> fc7 (in-place)
I0909 19:19:47.225311 15712 net.cpp:150] Setting up relu7
I0909 19:19:47.225323 15712 net.cpp:157] Top shape: 16 4096 (65536)
I0909 19:19:47.225327 15712 net.cpp:165] Memory required for data: 1842970688
I0909 19:19:47.225332 15712 layer_factory.hpp:77] Creating layer drop7
I0909 19:19:47.225339 15712 net.cpp:100] Creating Layer drop7
I0909 19:19:47.225344 15712 net.cpp:434] drop7 <- fc7
I0909 19:19:47.225349 15712 net.cpp:395] drop7 -> fc7 (in-place)
I0909 19:19:47.225383 15712 net.cpp:150] Setting up drop7
I0909 19:19:47.225390 15712 net.cpp:157] Top shape: 16 4096 (65536)
I0909 19:19:47.225396 15712 net.cpp:165] Memory required for data: 1843232832
I0909 19:19:47.225401 15712 layer_factory.hpp:77] Creating layer fc8
I0909 19:19:47.225410 15712 net.cpp:100] Creating Layer fc8
I0909 19:19:47.225416 15712 net.cpp:434] fc8 <- fc7
I0909 19:19:47.225422 15712 net.cpp:408] fc8 -> fc8
I0909 19:19:47.232776 15712 net.cpp:150] Setting up fc8
I0909 19:19:47.232811 15712 net.cpp:157] Top shape: 16 1000 (16000)
I0909 19:19:47.232816 15712 net.cpp:165] Memory required for data: 1843296832
I0909 19:19:47.232831 15712 layer_factory.hpp:77] Creating layer loss
I0909 19:19:47.232851 15712 net.cpp:100] Creating Layer loss
I0909 19:19:47.232858 15712 net.cpp:434] loss <- fc8
I0909 19:19:47.232864 15712 net.cpp:434] loss <- label
I0909 19:19:47.232872 15712 net.cpp:408] loss -> loss/loss
I0909 19:19:47.232888 15712 layer_factory.hpp:77] Creating layer loss
…
I0909 19:19:47.234174 15712 solver.cpp:181] Creating test net (#0) specified by net file: vgg16_train_val.prototxt
I0909 19:19:47.234212 15712 net.cpp:322] The NetState phase (1) differed from the phase (0) specified by a rule in layer data
I0909 19:19:47.234365 15712 net.cpp:58] Initializing net from parameters: 
name: "VGG_ILSVRC_16_layers"
state {
  phase: TEST
}
layer {
  name: "data"
  type: "ImageData"
  top: "data"
  top: "label"
  include {
    phase: TEST
  }
  transform_param {
    crop_size: 224
  }
  image_data_param {
    source: "images/list.txt"
    batch_size: 16
  }
}
layer {
  name: "conv1_1"
  type: "Convolution"
  bottom: "data"
  top: "conv1_1"
  param {
    lr_mult: 0.001
  }
  param {
    lr_mult: 0.001
  }
  convolution_param {
    num_output: 64
    pad: 1
    kernel_size: 3
  }
}
layer {
  name: "relu1_1"
  type: "ReLU"
  bottom: "conv1_1"
  top: "conv1_1"
}
layer {
  name: "conv1_2"
  type: "Convolution"
  bottom: "conv1_1"
  top: "conv1_2"
  param {
    lr_mult: 0.001
  }
  param {
    lr_mult: 0.001
  }
  convolution_param {
    num_output: 64
    pad: 1
    kernel_size: 3
  }
}
layer {
  name: "relu1_2"
  type: "ReLU"
  bottom: "conv1_2"
  top: "conv1_2"
}
layer {
  name: "pool1"
  type: "Pooling"
  bottom: "conv1_2"
  top: "pool1"
  pooling_param {
    pool: MAX
    kernel_size: 2
    stride: 2
  }
}
layer {
  name: "conv2_1"
  type: "Convolution"
  bottom: "pool1"
  top: "conv2_1"
  param {
    lr_mult: 0.001
  }
  param {
    lr_mult: 0.001
  }
  convolution_param {
    num_output: 128
    pad: 1
    kernel_size: 3
  }
}
layer {
  name: "relu2_1"
  type: "ReLU"
  bottom: "conv2_1"
  top: "conv2_1"
}
layer {
  name: "conv2_2"
  type: "Convolution"
  bottom: "conv2_1"
  top: "conv2_2"
  param {
    lr_mult: 0.001
  }
  param {
    lr_mult: 0.001
  }
  convolution_param {
    num_output: 128
    pad: 1
    kernel_size: 3
  }
}
layer {
  name: "relu2_2"
  type: "ReLU"
  bottom: "conv2_2"
  top: "conv2_2"
}
layer {
  name: "pool2"
  type: "Pooling"
  bottom: "conv2_2"
  top: "pool2"
  pooling_param {
    pool: MAX
    kernel_size: 2
    stride: 2
  }
}
layer {
  name: "conv3_1"
  type: "Convolution"
  bottom: "pool2"
  top: "conv3_1"
  param {
    lr_mult: 0.001
  }
  param {
    lr_mult: 0.001
  }
  convolution_param {
    num_output: 256
    pad: 1
    kernel_size: 3
  }
}
layer {
  name: "relu3_1"
  type: "ReLU"
  bottom: "conv3_1"
  top: "conv3_1"
}
layer {
  name: "conv3_2"
  type: "Convolution"
  bottom: "conv3_1"
  top: "conv3_2"
  param {
    lr_mult: 0.001
  }
  param {
    lr_mult: 0.001
  }
  convolution_param {
    num_output: 256
    pad: 1
    kernel_size: 3
  }
}
layer {
  name: "relu3_2"
  type: "ReLU"
  bottom: "conv3_2"
  top: "conv3_2"
}
layer {
  name: "conv3_3"
  type: "Convolution"
  bottom: "conv3_2"
  top: "conv3_3"
  param {
    lr_mult: 0.001
  }
  param {
    lr_mult: 0.001
  }
  convolution_param {
    num_output: 256
    pad: 1
    kernel_size: 3
  }
}
layer {
  name: "relu3_3"
  type: "ReLU"
  bottom: "conv3_3"
  top: "conv3_3"
}
layer {
  name: "pool3"
  type: "Pooling"
  bottom: "conv3_3"
  top: "pool3"
  pooling_param {
    pool: MAX
    kernel_size: 2
    stride: 2
  }
}
layer {
  name: "conv4_1"
  type: "Convolution"
  bottom: "pool3"
  top: "conv4_1"
  param {
    lr_mult: 0.001
  }
  param {
    lr_mult: 0.001
  }
  convolution_param {
    num_output: 512
    pad: 1
    kernel_size: 3
  }
}
layer {
  name: "relu4_1"
  type: "ReLU"
  bottom: "conv4_1"
  top: "conv4_1"
}
layer {
  name: "conv4_2"
  type: "Convolution"
  bottom: "conv4_1"
  top: "conv4_2"
  param {
    lr_mult: 0.001
  }
  param {
    lr_mult: 0.001
  }
  convolution_param {
    num_output: 512
    pad: 1
    kernel_size: 3
  }
}
layer {
  name: "relu4_2"
  type: "ReLU"
  bottom: "conv4_2"
  top: "conv4_2"
}
layer {
  name: "conv4_3"
  type: "Convolution"
  bottom: "conv4_2"
  top: "conv4_3"
  param {
    lr_mult: 0.001
  }
  param {
    lr_mult: 0.001
  }
  convolution_param {
    num_output: 512
    pad: 1
    kernel_size: 3
  }
}
layer {
  name: "relu4_3"
  type: "ReLU"
  bottom: "conv4_3"
  top: "conv4_3"
}
layer {
  name: "pool4"
  type: "Pooling"
  bottom: "conv4_3"
  top: "pool4"
  pooling_param {
    pool: MAX
    kernel_size: 2
    stride: 2
  }
}
layer {
  name: "conv5_1"
  type: "Convolution"
  bottom: "pool4"
  top: "conv5_1"
  param {
    lr_mult: 0.001
  }
  param {
    lr_mult: 0.001
  }
  convolution_param {
    num_output: 512
    pad: 1
    kernel_size: 3
  }
}
layer {
  name: "relu5_1"
  type: "ReLU"
  bottom: "conv5_1"
  top: "conv5_1"
}
layer {
  name: "conv5_2"
  type: "Convolution"
  bottom: "conv5_1"
  top: "conv5_2"
  param {
    lr_mult: 0.001
  }
  param {
    lr_mult: 0.001
  }
  convolution_param {
    num_output: 512
    pad: 1
    kernel_size: 3
  }
}
layer {
  name: "relu5_2"
  type: "ReLU"
  bottom: "conv5_2"
  top: "conv5_2"
}
layer {
  name: "conv5_3"
  type: "Convolution"
  bottom: "conv5_2"
  top: "conv5_3"
  param {
    lr_mult: 0.001
  }
  param {
    lr_mult: 0.001
  }
  convolution_param {
    num_output: 512
    pad: 1
    kernel_size: 3
  }
}
layer {
  name: "relu5_3"
  type: "ReLU"
  bottom: "conv5_3"
  top: "conv5_3"
}
layer {
  name: "pool5"
  type: "Pooling"
  bottom: "conv5_3"
  top: "pool5"
  pooling_param {
    pool: MAX
    kernel_size: 2
    stride: 2
  }
}
layer {
  name: "fc6"
  type: "InnerProduct"
  bottom: "pool5"
  top: "fc6"
  param {
    lr_mult: 0.001
  }
  param {
    lr_mult: 0.001
  }
  inner_product_param {
    num_output: 4096
  }
}
layer {
  name: "relu6"
  type: "ReLU"
  bottom: "fc6"
  top: "fc6"
}
layer {
  name: "drop6"
  type: "Dropout"
  bottom: "fc6"
  top: "fc6"
  dropout_param {
    dropout_ratio: 0.5
  }
}
layer {
  name: "fc7"
  type: "InnerProduct"
  bottom: "fc6"
  top: "fc7"
  param {
    lr_mult: 0.001
  }
  param {
    lr_mult: 0.001
  }
  inner_product_param {
    num_output: 4096
  }
}
layer {
  name: "relu7"
  type: "ReLU"
  bottom: "fc7"
  top: "fc7"
}
layer {
  name: "drop7"
  type: "Dropout"
  bottom: "fc7"
  top: "fc7"
  dropout_param {
    dropout_ratio: 0.5
  }
}
layer {
  name: "fc8"
  type: "InnerProduct"
  bottom: "fc7"
  top: "fc8"
  param {
    lr_mult: 0.001
  }
  param {
    lr_mult: 0.001
  }
  inner_product_param {
    num_output: 1000
  }
}
layer {
  name: "loss"
  type: "SoftmaxWithLoss"
  bottom: "fc8"
  bottom: "label"
  top: "loss/loss"
}
layer {
  name: "accuracy/top1"
  type: "Accuracy"
  bottom: "fc8"
  bottom: "label"
  top: "accuracy@1"
  include {
    phase: TEST
  }
  accuracy_param {
    top_k: 1
  }
}
layer {
  name: "accuracy/top5"
  type: "Accuracy"
  bottom: "fc8"
  bottom: "label"
  top: "accuracy@5"
  include {
    phase: TEST
  }
  accuracy_param {
    top_k: 5
  }
}
I0909 19:19:47.234706 15712 layer_factory.hpp:77] Creating layer data
I0909 19:19:47.234722 15712 net.cpp:100] Creating Layer data
I0909 19:19:47.234736 15712 net.cpp:408] data -> data
I0909 19:19:47.234746 15712 net.cpp:408] data -> label
I0909 19:19:47.234755 15712 image_data_layer.cpp:38] Opening file images/list.txt
I0909 19:19:47.234776 15712 image_data_layer.cpp:58] A total of 16 images.
I0909 19:19:47.235081 15712 image_data_layer.cpp:85] output data size: 16,3,224,224
I0909 19:19:47.247393 15712 net.cpp:150] Setting up data
I0909 19:19:47.247423 15712 net.cpp:157] Top shape: 16 3 224 224 (2408448)
I0909 19:19:47.247429 15712 net.cpp:157] Top shape: 16 (16)
I0909 19:19:47.247433 15712 net.cpp:165] Memory required for data: 9633856
I0909 19:19:47.247440 15712 layer_factory.hpp:77] Creating layer label_data_1_split
I0909 19:19:47.247457 15712 net.cpp:100] Creating Layer label_data_1_split
I0909 19:19:47.247463 15712 net.cpp:434] label_data_1_split <- label
I0909 19:19:47.247473 15712 net.cpp:408] label_data_1_split -> label_data_1_split_0
I0909 19:19:47.247484 15712 net.cpp:408] label_data_1_split -> label_data_1_split_1
I0909 19:19:47.247491 15712 net.cpp:408] label_data_1_split -> label_data_1_split_2
I0909 19:19:47.247607 15712 net.cpp:150] Setting up label_data_1_split
I0909 19:19:47.247615 15712 net.cpp:157] Top shape: 16 (16)
I0909 19:19:47.247622 15712 net.cpp:157] Top shape: 16 (16)
I0909 19:19:47.247627 15712 net.cpp:157] Top shape: 16 (16)
I0909 19:19:47.247632 15712 net.cpp:165] Memory required for data: 9634048
I0909 19:19:47.247638 15712 layer_factory.hpp:77] Creating layer conv1_1
I0909 19:19:47.247650 15712 net.cpp:100] Creating Layer conv1_1
I0909 19:19:47.247656 15712 net.cpp:434] conv1_1 <- data
I0909 19:19:47.247663 15712 net.cpp:408] conv1_1 -> conv1_1
I0909 19:19:47.248889 15712 net.cpp:150] Setting up conv1_1
I0909 19:19:47.248903 15712 net.cpp:157] Top shape: 16 64 224 224 (51380224)
I0909 19:19:47.248909 15712 net.cpp:165] Memory required for data: 215154944
I0909 19:19:47.248922 15712 layer_factory.hpp:77] Creating layer relu1_1
I0909 19:19:47.248931 15712 net.cpp:100] Creating Layer relu1_1
I0909 19:19:47.248936 15712 net.cpp:434] relu1_1 <- conv1_1
I0909 19:19:47.248944 15712 net.cpp:395] relu1_1 -> conv1_1 (in-place)
I0909 19:19:47.249991 15712 net.cpp:150] Setting up relu1_1
I0909 19:19:47.250006 15712 net.cpp:157] Top shape: 16 64 224 224 (51380224)
I0909 19:19:47.250011 15712 net.cpp:165] Memory required for data: 420675840
I0909 19:19:47.250017 15712 layer_factory.hpp:77] Creating layer conv1_2
I0909 19:19:47.250027 15712 net.cpp:100] Creating Layer conv1_2
I0909 19:19:47.250033 15712 net.cpp:434] conv1_2 <- conv1_1
I0909 19:19:47.250041 15712 net.cpp:408] conv1_2 -> conv1_2
I0909 19:19:47.251557 15712 net.cpp:150] Setting up conv1_2
I0909 19:19:47.251570 15712 net.cpp:157] Top shape: 16 64 224 224 (51380224)
I0909 19:19:47.251575 15712 net.cpp:165] Memory required for data: 626196736
I0909 19:19:47.251586 15712 layer_factory.hpp:77] Creating layer relu1_2
I0909 19:19:47.251595 15712 net.cpp:100] Creating Layer relu1_2
I0909 19:19:47.251600 15712 net.cpp:434] relu1_2 <- conv1_2
I0909 19:19:47.251606 15712 net.cpp:395] relu1_2 -> conv1_2 (in-place)
I0909 19:19:47.251750 15712 net.cpp:150] Setting up relu1_2
I0909 19:19:47.251760 15712 net.cpp:157] Top shape: 16 64 224 224 (51380224)
I0909 19:19:47.251765 15712 net.cpp:165] Memory required for data: 831717632
I0909 19:19:47.251770 15712 layer_factory.hpp:77] Creating layer pool1
I0909 19:19:47.251778 15712 net.cpp:100] Creating Layer pool1
I0909 19:19:47.251783 15712 net.cpp:434] pool1 <- conv1_2
I0909 19:19:47.251791 15712 net.cpp:408] pool1 -> pool1
I0909 19:19:47.251833 15712 net.cpp:150] Setting up pool1
I0909 19:19:47.251840 15712 net.cpp:157] Top shape: 16 64 112 112 (12845056)
I0909 19:19:47.251845 15712 net.cpp:165] Memory required for data: 883097856
I0909 19:19:47.251850 15712 layer_factory.hpp:77] Creating layer conv2_1
I0909 19:19:47.251859 15712 net.cpp:100] Creating Layer conv2_1
I0909 19:19:47.251864 15712 net.cpp:434] conv2_1 <- pool1
I0909 19:19:47.251871 15712 net.cpp:408] conv2_1 -> conv2_1
I0909 19:19:47.253245 15712 net.cpp:150] Setting up conv2_1
I0909 19:19:47.253278 15712 net.cpp:157] Top shape: 16 128 112 112 (25690112)
I0909 19:19:47.253283 15712 net.cpp:165] Memory required for data: 985858304
I0909 19:19:47.253293 15712 layer_factory.hpp:77] Creating layer relu2_1
I0909 19:19:47.253301 15712 net.cpp:100] Creating Layer relu2_1
I0909 19:19:47.253307 15712 net.cpp:434] relu2_1 <- conv2_1
I0909 19:19:47.253314 15712 net.cpp:395] relu2_1 -> conv2_1 (in-place)
I0909 19:19:47.253582 15712 net.cpp:150] Setting up relu2_1
I0909 19:19:47.253594 15712 net.cpp:157] Top shape: 16 128 112 112 (25690112)
I0909 19:19:47.253599 15712 net.cpp:165] Memory required for data: 1088618752
I0909 19:19:47.253604 15712 layer_factory.hpp:77] Creating layer conv2_2
I0909 19:19:47.253614 15712 net.cpp:100] Creating Layer conv2_2
I0909 19:19:47.253619 15712 net.cpp:434] conv2_2 <- conv2_1
I0909 19:19:47.253626 15712 net.cpp:408] conv2_2 -> conv2_2
I0909 19:19:47.254576 15712 net.cpp:150] Setting up conv2_2
I0909 19:19:47.254590 15712 net.cpp:157] Top shape: 16 128 112 112 (25690112)
I0909 19:19:47.254595 15712 net.cpp:165] Memory required for data: 1191379200
I0909 19:19:47.254602 15712 layer_factory.hpp:77] Creating layer relu2_2
I0909 19:19:47.254611 15712 net.cpp:100] Creating Layer relu2_2
I0909 19:19:47.254616 15712 net.cpp:434] relu2_2 <- conv2_2
I0909 19:19:47.254623 15712 net.cpp:395] relu2_2 -> conv2_2 (in-place)
I0909 19:19:47.254889 15712 net.cpp:150] Setting up relu2_2
I0909 19:19:47.254900 15712 net.cpp:157] Top shape: 16 128 112 112 (25690112)
I0909 19:19:47.254906 15712 net.cpp:165] Memory required for data: 1294139648
I0909 19:19:47.254911 15712 layer_factory.hpp:77] Creating layer pool2
I0909 19:19:47.254920 15712 net.cpp:100] Creating Layer pool2
I0909 19:19:47.254925 15712 net.cpp:434] pool2 <- conv2_2
I0909 19:19:47.274103 15712 net.cpp:408] pool2 -> pool2
I0909 19:19:47.274226 15712 net.cpp:150] Setting up pool2
I0909 19:19:47.274240 15712 net.cpp:157] Top shape: 16 128 56 56 (6422528)
I0909 19:19:47.274243 15712 net.cpp:165] Memory required for data: 1319829760
I0909 19:19:47.274250 15712 layer_factory.hpp:77] Creating layer conv3_1
I0909 19:19:47.274262 15712 net.cpp:100] Creating Layer conv3_1
I0909 19:19:47.274267 15712 net.cpp:434] conv3_1 <- pool2
I0909 19:19:47.274276 15712 net.cpp:408] conv3_1 -> conv3_1
I0909 19:19:47.276041 15712 net.cpp:150] Setting up conv3_1
I0909 19:19:47.276057 15712 net.cpp:157] Top shape: 16 256 56 56 (12845056)
I0909 19:19:47.276062 15712 net.cpp:165] Memory required for data: 1371209984
I0909 19:19:47.276074 15712 layer_factory.hpp:77] Creating layer relu3_1
I0909 19:19:47.276082 15712 net.cpp:100] Creating Layer relu3_1
I0909 19:19:47.276088 15712 net.cpp:434] relu3_1 <- conv3_1
I0909 19:19:47.276095 15712 net.cpp:395] relu3_1 -> conv3_1 (in-place)
I0909 19:19:47.276248 15712 net.cpp:150] Setting up relu3_1
I0909 19:19:47.276258 15712 net.cpp:157] Top shape: 16 256 56 56 (12845056)
I0909 19:19:47.276263 15712 net.cpp:165] Memory required for data: 1422590208
I0909 19:19:47.276268 15712 layer_factory.hpp:77] Creating layer conv3_2
I0909 19:19:47.276278 15712 net.cpp:100] Creating Layer conv3_2
I0909 19:19:47.276283 15712 net.cpp:434] conv3_2 <- conv3_1
I0909 19:19:47.276289 15712 net.cpp:408] conv3_2 -> conv3_2
I0909 19:19:47.278331 15712 net.cpp:150] Setting up conv3_2
I0909 19:19:47.278347 15712 net.cpp:157] Top shape: 16 256 56 56 (12845056)
I0909 19:19:47.278352 15712 net.cpp:165] Memory required for data: 1473970432
I0909 19:19:47.278359 15712 layer_factory.hpp:77] Creating layer relu3_2
I0909 19:19:47.278367 15712 net.cpp:100] Creating Layer relu3_2
I0909 19:19:47.278373 15712 net.cpp:434] relu3_2 <- conv3_2
I0909 19:19:47.278379 15712 net.cpp:395] relu3_2 -> conv3_2 (in-place)
I0909 19:19:47.278651 15712 net.cpp:150] Setting up relu3_2
I0909 19:19:47.278663 15712 net.cpp:157] Top shape: 16 256 56 56 (12845056)
I0909 19:19:47.278668 15712 net.cpp:165] Memory required for data: 1525350656
I0909 19:19:47.278673 15712 layer_factory.hpp:77] Creating layer conv3_3
I0909 19:19:47.278686 15712 net.cpp:100] Creating Layer conv3_3
I0909 19:19:47.278708 15712 net.cpp:434] conv3_3 <- conv3_2
I0909 19:19:47.278717 15712 net.cpp:408] conv3_3 -> conv3_3
I0909 19:19:47.280561 15712 net.cpp:150] Setting up conv3_3
I0909 19:19:47.280576 15712 net.cpp:157] Top shape: 16 256 56 56 (12845056)
I0909 19:19:47.280581 15712 net.cpp:165] Memory required for data: 1576730880
I0909 19:19:47.280591 15712 layer_factory.hpp:77] Creating layer relu3_3
I0909 19:19:47.280597 15712 net.cpp:100] Creating Layer relu3_3
I0909 19:19:47.280603 15712 net.cpp:434] relu3_3 <- conv3_3
I0909 19:19:47.280611 15712 net.cpp:395] relu3_3 -> conv3_3 (in-place)
I0909 19:19:47.280880 15712 net.cpp:150] Setting up relu3_3
I0909 19:19:47.280892 15712 net.cpp:157] Top shape: 16 256 56 56 (12845056)
I0909 19:19:47.280897 15712 net.cpp:165] Memory required for data: 1628111104
I0909 19:19:47.280902 15712 layer_factory.hpp:77] Creating layer pool3
I0909 19:19:47.280911 15712 net.cpp:100] Creating Layer pool3
I0909 19:19:47.280916 15712 net.cpp:434] pool3 <- conv3_3
I0909 19:19:47.280925 15712 net.cpp:408] pool3 -> pool3
I0909 19:19:47.280971 15712 net.cpp:150] Setting up pool3
I0909 19:19:47.280977 15712 net.cpp:157] Top shape: 16 256 28 28 (3211264)
I0909 19:19:47.280982 15712 net.cpp:165] Memory required for data: 1640956160
I0909 19:19:47.280987 15712 layer_factory.hpp:77] Creating layer conv4_1
I0909 19:19:47.280995 15712 net.cpp:100] Creating Layer conv4_1
I0909 19:19:47.281000 15712 net.cpp:434] conv4_1 <- pool3
I0909 19:19:47.281008 15712 net.cpp:408] conv4_1 -> conv4_1
I0909 19:19:47.284584 15712 net.cpp:150] Setting up conv4_1
I0909 19:19:47.284602 15712 net.cpp:157] Top shape: 16 512 28 28 (6422528)
I0909 19:19:47.284607 15712 net.cpp:165] Memory required for data: 1666646272
I0909 19:19:47.284616 15712 layer_factory.hpp:77] Creating layer relu4_1
I0909 19:19:47.284626 15712 net.cpp:100] Creating Layer relu4_1
I0909 19:19:47.284631 15712 net.cpp:434] relu4_1 <- conv4_1
I0909 19:19:47.284638 15712 net.cpp:395] relu4_1 -> conv4_1 (in-place)
I0909 19:19:47.284785 15712 net.cpp:150] Setting up relu4_1
I0909 19:19:47.284795 15712 net.cpp:157] Top shape: 16 512 28 28 (6422528)
I0909 19:19:47.284799 15712 net.cpp:165] Memory required for data: 1692336384
I0909 19:19:47.284804 15712 layer_factory.hpp:77] Creating layer conv4_2
I0909 19:19:47.284813 15712 net.cpp:100] Creating Layer conv4_2
I0909 19:19:47.284819 15712 net.cpp:434] conv4_2 <- conv4_1
I0909 19:19:47.284826 15712 net.cpp:408] conv4_2 -> conv4_2
I0909 19:19:47.289644 15712 net.cpp:150] Setting up conv4_2
I0909 19:19:47.289671 15712 net.cpp:157] Top shape: 16 512 28 28 (6422528)
I0909 19:19:47.289677 15712 net.cpp:165] Memory required for data: 1718026496
I0909 19:19:47.289692 15712 layer_factory.hpp:77] Creating layer relu4_2
I0909 19:19:47.289702 15712 net.cpp:100] Creating Layer relu4_2
I0909 19:19:47.289710 15712 net.cpp:434] relu4_2 <- conv4_2
I0909 19:19:47.289717 15712 net.cpp:395] relu4_2 -> conv4_2 (in-place)
I0909 19:19:47.290094 15712 net.cpp:150] Setting up relu4_2
I0909 19:19:47.290107 15712 net.cpp:157] Top shape: 16 512 28 28 (6422528)
I0909 19:19:47.290112 15712 net.cpp:165] Memory required for data: 1743716608
I0909 19:19:47.290118 15712 layer_factory.hpp:77] Creating layer conv4_3
I0909 19:19:47.290128 15712 net.cpp:100] Creating Layer conv4_3
I0909 19:19:47.290134 15712 net.cpp:434] conv4_3 <- conv4_2
I0909 19:19:47.290141 15712 net.cpp:408] conv4_3 -> conv4_3
I0909 19:19:47.294831 15712 net.cpp:150] Setting up conv4_3
I0909 19:19:47.294854 15712 net.cpp:157] Top shape: 16 512 28 28 (6422528)
I0909 19:19:47.294860 15712 net.cpp:165] Memory required for data: 1769406720
I0909 19:19:47.294870 15712 layer_factory.hpp:77] Creating layer relu4_3
I0909 19:19:47.294879 15712 net.cpp:100] Creating Layer relu4_3
I0909 19:19:47.294886 15712 net.cpp:434] relu4_3 <- conv4_3
I0909 19:19:47.294893 15712 net.cpp:395] relu4_3 -> conv4_3 (in-place)
I0909 19:19:47.295183 15712 net.cpp:150] Setting up relu4_3
I0909 19:19:47.295197 15712 net.cpp:157] Top shape: 16 512 28 28 (6422528)
I0909 19:19:47.295202 15712 net.cpp:165] Memory required for data: 1795096832
I0909 19:19:47.295228 15712 layer_factory.hpp:77] Creating layer pool4
I0909 19:19:47.295236 15712 net.cpp:100] Creating Layer pool4
I0909 19:19:47.295241 15712 net.cpp:434] pool4 <- conv4_3
I0909 19:19:47.295250 15712 net.cpp:408] pool4 -> pool4
I0909 19:19:47.295298 15712 net.cpp:150] Setting up pool4
I0909 19:19:47.295305 15712 net.cpp:157] Top shape: 16 512 14 14 (1605632)
I0909 19:19:47.295310 15712 net.cpp:165] Memory required for data: 1801519360
I0909 19:19:47.295316 15712 layer_factory.hpp:77] Creating layer conv5_1
I0909 19:19:47.295325 15712 net.cpp:100] Creating Layer conv5_1
I0909 19:19:47.295331 15712 net.cpp:434] conv5_1 <- pool4
I0909 19:19:47.295337 15712 net.cpp:408] conv5_1 -> conv5_1
I0909 19:19:47.300169 15712 net.cpp:150] Setting up conv5_1
I0909 19:19:47.300196 15712 net.cpp:157] Top shape: 16 512 14 14 (1605632)
I0909 19:19:47.300202 15712 net.cpp:165] Memory required for data: 1807941888
I0909 19:19:47.300211 15712 layer_factory.hpp:77] Creating layer relu5_1
I0909 19:19:47.300221 15712 net.cpp:100] Creating Layer relu5_1
I0909 19:19:47.300227 15712 net.cpp:434] relu5_1 <- conv5_1
I0909 19:19:47.304432 15712 net.cpp:395] relu5_1 -> conv5_1 (in-place)
I0909 19:19:47.304595 15712 net.cpp:150] Setting up relu5_1
I0909 19:19:47.304605 15712 net.cpp:157] Top shape: 16 512 14 14 (1605632)
I0909 19:19:47.304610 15712 net.cpp:165] Memory required for data: 1814364416
I0909 19:19:47.304615 15712 layer_factory.hpp:77] Creating layer conv5_2
I0909 19:19:47.304623 15712 net.cpp:100] Creating Layer conv5_2
I0909 19:19:47.304630 15712 net.cpp:434] conv5_2 <- conv5_1
I0909 19:19:47.304637 15712 net.cpp:408] conv5_2 -> conv5_2
I0909 19:19:47.309653 15712 net.cpp:150] Setting up conv5_2
I0909 19:19:47.309679 15712 net.cpp:157] Top shape: 16 512 14 14 (1605632)
I0909 19:19:47.309685 15712 net.cpp:165] Memory required for data: 1820786944
I0909 19:19:47.309695 15712 layer_factory.hpp:77] Creating layer relu5_2
I0909 19:19:47.309706 15712 net.cpp:100] Creating Layer relu5_2
I0909 19:19:47.309712 15712 net.cpp:434] relu5_2 <- conv5_2
I0909 19:19:47.309721 15712 net.cpp:395] relu5_2 -> conv5_2 (in-place)
I0909 19:19:47.309993 15712 net.cpp:150] Setting up relu5_2
I0909 19:19:47.310005 15712 net.cpp:157] Top shape: 16 512 14 14 (1605632)
I0909 19:19:47.310011 15712 net.cpp:165] Memory required for data: 1827209472
I0909 19:19:47.310017 15712 layer_factory.hpp:77] Creating layer conv5_3
I0909 19:19:47.310029 15712 net.cpp:100] Creating Layer conv5_3
I0909 19:19:47.310034 15712 net.cpp:434] conv5_3 <- conv5_2
I0909 19:19:47.310041 15712 net.cpp:408] conv5_3 -> conv5_3
I0909 19:19:47.314857 15712 net.cpp:150] Setting up conv5_3
I0909 19:19:47.314887 15712 net.cpp:157] Top shape: 16 512 14 14 (1605632)
I0909 19:19:47.314893 15712 net.cpp:165] Memory required for data: 1833632000
I0909 19:19:47.314903 15712 layer_factory.hpp:77] Creating layer relu5_3
I0909 19:19:47.314913 15712 net.cpp:100] Creating Layer relu5_3
I0909 19:19:47.314918 15712 net.cpp:434] relu5_3 <- conv5_3
I0909 19:19:47.314927 15712 net.cpp:395] relu5_3 -> conv5_3 (in-place)
I0909 19:19:47.315212 15712 net.cpp:150] Setting up relu5_3
I0909 19:19:47.315224 15712 net.cpp:157] Top shape: 16 512 14 14 (1605632)
I0909 19:19:47.315229 15712 net.cpp:165] Memory required for data: 1840054528
I0909 19:19:47.315235 15712 layer_factory.hpp:77] Creating layer pool5
I0909 19:19:47.315248 15712 net.cpp:100] Creating Layer pool5
I0909 19:19:47.315253 15712 net.cpp:434] pool5 <- conv5_3
I0909 19:19:47.315260 15712 net.cpp:408] pool5 -> pool5
I0909 19:19:47.315315 15712 net.cpp:150] Setting up pool5
I0909 19:19:47.315322 15712 net.cpp:157] Top shape: 16 512 7 7 (401408)
I0909 19:19:47.315328 15712 net.cpp:165] Memory required for data: 1841660160
I0909 19:19:47.315333 15712 layer_factory.hpp:77] Creating layer fc6
I0909 19:19:47.315342 15712 net.cpp:100] Creating Layer fc6
I0909 19:19:47.315347 15712 net.cpp:434] fc6 <- pool5
I0909 19:19:47.315354 15712 net.cpp:408] fc6 -> fc6
I0909 19:19:47.491299 15712 net.cpp:150] Setting up fc6
I0909 19:19:47.491358 15712 net.cpp:157] Top shape: 16 4096 (65536)
I0909 19:19:47.491364 15712 net.cpp:165] Memory required for data: 1841922304
I0909 19:19:47.491374 15712 layer_factory.hpp:77] Creating layer relu6
I0909 19:19:47.491386 15712 net.cpp:100] Creating Layer relu6
I0909 19:19:47.491394 15712 net.cpp:434] relu6 <- fc6
I0909 19:19:47.491403 15712 net.cpp:395] relu6 -> fc6 (in-place)
I0909 19:19:47.491619 15712 net.cpp:150] Setting up relu6
I0909 19:19:47.491629 15712 net.cpp:157] Top shape: 16 4096 (65536)
I0909 19:19:47.491633 15712 net.cpp:165] Memory required for data: 1842184448
I0909 19:19:47.491638 15712 layer_factory.hpp:77] Creating layer drop6
I0909 19:19:47.491647 15712 net.cpp:100] Creating Layer drop6
I0909 19:19:47.491653 15712 net.cpp:434] drop6 <- fc6
I0909 19:19:47.491660 15712 net.cpp:395] drop6 -> fc6 (in-place)
I0909 19:19:47.491693 15712 net.cpp:150] Setting up drop6
I0909 19:19:47.491700 15712 net.cpp:157] Top shape: 16 4096 (65536)
I0909 19:19:47.491706 15712 net.cpp:165] Memory required for data: 1842446592
I0909 19:19:47.491711 15712 layer_factory.hpp:77] Creating layer fc7
I0909 19:19:47.491720 15712 net.cpp:100] Creating Layer fc7
I0909 19:19:47.491727 15712 net.cpp:434] fc7 <- fc6
I0909 19:19:47.491734 15712 net.cpp:408] fc7 -> fc7
I0909 19:19:47.520544 15712 net.cpp:150] Setting up fc7
I0909 19:19:47.520577 15712 net.cpp:157] Top shape: 16 4096 (65536)
I0909 19:19:47.520581 15712 net.cpp:165] Memory required for data: 1842708736
I0909 19:19:47.520591 15712 layer_factory.hpp:77] Creating layer relu7
I0909 19:19:47.520602 15712 net.cpp:100] Creating Layer relu7
I0909 19:19:47.520611 15712 net.cpp:434] relu7 <- fc7
I0909 19:19:47.520618 15712 net.cpp:395] relu7 -> fc7 (in-place)
I0909 19:19:47.521040 15712 net.cpp:150] Setting up relu7
I0909 19:19:47.521052 15712 net.cpp:157] Top shape: 16 4096 (65536)
I0909 19:19:47.521056 15712 net.cpp:165] Memory required for data: 1842970880
I0909 19:19:47.521061 15712 layer_factory.hpp:77] Creating layer drop7
I0909 19:19:47.521070 15712 net.cpp:100] Creating Layer drop7
I0909 19:19:47.521076 15712 net.cpp:434] drop7 <- fc7
I0909 19:19:47.521083 15712 net.cpp:395] drop7 -> fc7 (in-place)
I0909 19:19:47.521119 15712 net.cpp:150] Setting up drop7
I0909 19:19:47.521126 15712 net.cpp:157] Top shape: 16 4096 (65536)
I0909 19:19:47.521131 15712 net.cpp:165] Memory required for data: 1843233024
I0909 19:19:47.521136 15712 layer_factory.hpp:77] Creating layer fc8
I0909 19:19:47.521144 15712 net.cpp:100] Creating Layer fc8
I0909 19:19:47.521149 15712 net.cpp:434] fc8 <- fc7
I0909 19:19:47.521157 15712 net.cpp:408] fc8 -> fc8
I0909 19:19:47.528368 15712 net.cpp:150] Setting up fc8
I0909 19:19:47.528399 15712 net.cpp:157] Top shape: 16 1000 (16000)
I0909 19:19:47.528403 15712 net.cpp:165] Memory required for data: 1843297024
I0909 19:19:47.528414 15712 layer_factory.hpp:77] Creating layer fc8_fc8_0_split
I0909 19:19:47.528425 15712 net.cpp:100] Creating Layer fc8_fc8_0_split
I0909 19:19:47.528431 15712 net.cpp:434] fc8_fc8_0_split <- fc8
I0909 19:19:47.528440 15712 net.cpp:408] fc8_fc8_0_split -> fc8_fc8_0_split_0
I0909 19:19:47.528451 15712 net.cpp:408] fc8_fc8_0_split -> fc8_fc8_0_split_1
I0909 19:19:47.528458 15712 net.cpp:408] fc8_fc8_0_split -> fc8_fc8_0_split_2
I0909 19:19:47.528513 15712 net.cpp:150] Setting up fc8_fc8_0_split
I0909 19:19:47.528522 15712 net.cpp:157] Top shape: 16 1000 (16000)
I0909 19:19:47.528527 15712 net.cpp:157] Top shape: 16 1000 (16000)
I0909 19:19:47.528532 15712 net.cpp:157] Top shape: 16 1000 (16000)
I0909 19:19:47.528537 15712 net.cpp:165] Memory required for data: 1843489024
I0909 19:19:47.528542 15712 layer_factory.hpp:77] Creating layer loss
I0909 19:19:47.528550 15712 net.cpp:100] Creating Layer loss
I0909 19:19:47.528555 15712 net.cpp:434] loss <- fc8_fc8_0_split_0
I0909 19:19:47.528561 15712 net.cpp:434] loss <- label_data_1_split_0
I0909 19:19:47.528568 15712 net.cpp:408] loss -> loss/loss
…
