…
I0819 17:52:37.918892 16390 net.cpp:313] The NetState phase (0) differed from the phase (1) specified by a rule in layer accuracy/top1
I0819 17:52:37.918901 16390 net.cpp:313] The NetState phase (0) differed from the phase (1) specified by a rule in layer accuracy/top5
I0819 17:52:37.919061 16390 net.cpp:49] Initializing net from parameters: 
name: "VGG_ILSVRC_16_layers"
state {
  phase: TRAIN
}
layer {
  name: "data"
  type: "ImageData"
  top: "data"
  top: "label"
  include {
    phase: TRAIN
  }
  transform_param {
    crop_size: 224
  }
  image_data_param {
    source: "images/list.txt"
    batch_size: 16
  }
}
layer {
  name: "conv1_1"
  type: "Convolution"
  bottom: "data"
  top: "conv1_1"
  param {
    lr_mult: 0.001
  }
  param {
    lr_mult: 0.001
  }
  convolution_param {
    num_output: 64
    pad: 1
    kernel_size: 3
  }
}
layer {
  name: "relu1_1"
  type: "ReLU"
  bottom: "conv1_1"
  top: "conv1_1"
}
layer {
  name: "conv1_2"
  type: "Convolution"
  bottom: "conv1_1"
  top: "conv1_2"
  param {
    lr_mult: 0.001
  }
  param {
    lr_mult: 0.001
  }
  convolution_param {
    num_output: 64
    pad: 1
    kernel_size: 3
  }
}
layer {
  name: "relu1_2"
  type: "ReLU"
  bottom: "conv1_2"
  top: "conv1_2"
}
layer {
  name: "pool1"
  type: "Pooling"
  bottom: "conv1_2"
  top: "pool1"
  pooling_param {
    pool: MAX
    kernel_size: 2
    stride: 2
  }
}
layer {
  name: "conv2_1"
  type: "Convolution"
  bottom: "pool1"
  top: "conv2_1"
  param {
    lr_mult: 0.001
  }
  param {
    lr_mult: 0.001
  }
  convolution_param {
    num_output: 128
    pad: 1
    kernel_size: 3
  }
}
layer {
  name: "relu2_1"
  type: "ReLU"
  bottom: "conv2_1"
  top: "conv2_1"
}
layer {
  name: "conv2_2"
  type: "Convolution"
  bottom: "conv2_1"
  top: "conv2_2"
  param {
    lr_mult: 0.001
  }
  param {
    lr_mult: 0.001
  }
  convolution_param {
    num_output: 128
    pad: 1
    kernel_size: 3
  }
}
layer {
  name: "relu2_2"
  type: "ReLU"
  bottom: "conv2_2"
  top: "conv2_2"
}
layer {
  name: "pool2"
  type: "Pooling"
  bottom: "conv2_2"
  top: "pool2"
  pooling_param {
    pool: MAX
    kernel_size: 2
    stride: 2
  }
}
layer {
  name: "conv3_1"
  type: "Convolution"
  bottom: "pool2"
  top: "conv3_1"
  param {
    lr_mult: 0.001
  }
  param {
    lr_mult: 0.001
  }
  convolution_param {
    num_output: 256
    pad: 1
    kernel_size: 3
  }
}
layer {
  name: "relu3_1"
  type: "ReLU"
  bottom: "conv3_1"
  top: "conv3_1"
}
layer {
  name: "conv3_2"
  type: "Convolution"
  bottom: "conv3_1"
  top: "conv3_2"
  param {
    lr_mult: 0.001
  }
  param {
    lr_mult: 0.001
  }
  convolution_param {
    num_output: 256
    pad: 1
    kernel_size: 3
  }
}
layer {
  name: "relu3_2"
  type: "ReLU"
  bottom: "conv3_2"
  top: "conv3_2"
}
layer {
  name: "conv3_3"
  type: "Convolution"
  bottom: "conv3_2"
  top: "conv3_3"
  param {
    lr_mult: 0.001
  }
  param {
    lr_mult: 0.001
  }
  convolution_param {
    num_output: 256
    pad: 1
    kernel_size: 3
  }
}
layer {
  name: "relu3_3"
  type: "ReLU"
  bottom: "conv3_3"
  top: "conv3_3"
}
layer {
  name: "pool3"
  type: "Pooling"
  bottom: "conv3_3"
  top: "pool3"
  pooling_param {
    pool: MAX
    kernel_size: 2
    stride: 2
  }
}
layer {
  name: "conv4_1"
  type: "Convolution"
  bottom: "pool3"
  top: "conv4_1"
  param {
    lr_mult: 0.001
  }
  param {
    lr_mult: 0.001
  }
  convolution_param {
    num_output: 512
    pad: 1
    kernel_size: 3
  }
}
layer {
  name: "relu4_1"
  type: "ReLU"
  bottom: "conv4_1"
  top: "conv4_1"
}
layer {
  name: "conv4_2"
  type: "Convolution"
  bottom: "conv4_1"
  top: "conv4_2"
  param {
    lr_mult: 0.001
  }
  param {
    lr_mult: 0.001
  }
  convolution_param {
    num_output: 512
    pad: 1
    kernel_size: 3
  }
}
layer {
  name: "relu4_2"
  type: "ReLU"
  bottom: "conv4_2"
  top: "conv4_2"
}
layer {
  name: "conv4_3"
  type: "Convolution"
  bottom: "conv4_2"
  top: "conv4_3"
  param {
    lr_mult: 0.001
  }
  param {
    lr_mult: 0.001
  }
  convolution_param {
    num_output: 512
    pad: 1
    kernel_size: 3
  }
}
layer {
  name: "relu4_3"
  type: "ReLU"
  bottom: "conv4_3"
  top: "conv4_3"
}
layer {
  name: "pool4"
  type: "Pooling"
  bottom: "conv4_3"
  top: "pool4"
  pooling_param {
    pool: MAX
    kernel_size: 2
    stride: 2
  }
}
layer {
  name: "conv5_1"
  type: "Convolution"
  bottom: "pool4"
  top: "conv5_1"
  param {
    lr_mult: 0.001
  }
  param {
    lr_mult: 0.001
  }
  convolution_param {
    num_output: 512
    pad: 1
    kernel_size: 3
  }
}
layer {
  name: "relu5_1"
  type: "ReLU"
  bottom: "conv5_1"
  top: "conv5_1"
}
layer {
  name: "conv5_2"
  type: "Convolution"
  bottom: "conv5_1"
  top: "conv5_2"
  param {
    lr_mult: 0.001
  }
  param {
    lr_mult: 0.001
  }
  convolution_param {
    num_output: 512
    pad: 1
    kernel_size: 3
  }
}
layer {
  name: "relu5_2"
  type: "ReLU"
  bottom: "conv5_2"
  top: "conv5_2"
}
layer {
  name: "conv5_3"
  type: "Convolution"
  bottom: "conv5_2"
  top: "conv5_3"
  param {
    lr_mult: 0.001
  }
  param {
    lr_mult: 0.001
  }
  convolution_param {
    num_output: 512
    pad: 1
    kernel_size: 3
  }
}
layer {
  name: "relu5_3"
  type: "ReLU"
  bottom: "conv5_3"
  top: "conv5_3"
}
layer {
  name: "pool5"
  type: "Pooling"
  bottom: "conv5_3"
  top: "pool5"
  pooling_param {
    pool: MAX
    kernel_size: 2
    stride: 2
  }
}
layer {
  name: "fc6"
  type: "InnerProduct"
  bottom: "pool5"
  top: "fc6"
  param {
    lr_mult: 0.001
  }
  param {
    lr_mult: 0.001
  }
  inner_product_param {
    num_output: 4096
  }
}
layer {
  name: "relu6"
  type: "ReLU"
  bottom: "fc6"
  top: "fc6"
}
layer {
  name: "drop6"
  type: "Dropout"
  bottom: "fc6"
  top: "fc6"
  dropout_param {
    dropout_ratio: 0.5
  }
}
layer {
  name: "fc7"
  type: "InnerProduct"
  bottom: "fc6"
  top: "fc7"
  param {
    lr_mult: 0.001
  }
  param {
    lr_mult: 0.001
  }
  inner_product_param {
    num_output: 4096
  }
}
layer {
  name: "relu7"
  type: "ReLU"
  bottom: "fc7"
  top: "fc7"
}
layer {
  name: "drop7"
  type: "Dropout"
  bottom: "fc7"
  top: "fc7"
  dropout_param {
    dropout_ratio: 0.5
  }
}
layer {
  name: "fc8"
  type: "InnerProduct"
  bottom: "fc7"
  top: "fc8"
  param {
    lr_mult: 0.001
  }
  param {
    lr_mult: 0.001
  }
  inner_product_param {
    num_output: 1000
  }
}
layer {
  name: "loss"
  type: "SoftmaxWithLoss"
  bottom: "fc8"
  bottom: "label"
  top: "loss/loss"
}
I0819 17:52:37.920418 16390 layer_factory.hpp:77] Creating layer data
I0819 17:52:37.920460 16390 net.cpp:91] Creating Layer data
I0819 17:52:37.920471 16390 net.cpp:399] data -> data
I0819 17:52:37.920490 16390 net.cpp:399] data -> label
I0819 17:52:37.920825 16390 image_data_layer.cpp:38] Opening file images/list.txt
I0819 17:52:37.920863 16390 image_data_layer.cpp:58] A total of 16 images.
I0819 17:52:37.929133 16390 image_data_layer.cpp:85] output data size: 16,3,224,224
I0819 17:52:37.949146 16390 net.cpp:141] Setting up data
I0819 17:52:37.949187 16390 net.cpp:148] Top shape: 16 3 224 224 (2408448)
I0819 17:52:37.949195 16390 net.cpp:148] Top shape: 16 (16)
I0819 17:52:37.949200 16390 net.cpp:156] Memory required for data: 9633856
I0819 17:52:37.949211 16390 layer_factory.hpp:77] Creating layer conv1_1
I0819 17:52:37.949231 16390 net.cpp:91] Creating Layer conv1_1
I0819 17:52:37.949259 16390 net.cpp:425] conv1_1 <- data
I0819 17:52:37.949272 16390 net.cpp:399] conv1_1 -> conv1_1
I0819 17:52:38.130198 16390 net.cpp:141] Setting up conv1_1
I0819 17:52:38.130234 16390 net.cpp:148] Top shape: 16 64 224 224 (51380224)
I0819 17:52:38.130240 16390 net.cpp:156] Memory required for data: 215154752
I0819 17:52:38.130257 16390 layer_factory.hpp:77] Creating layer relu1_1
I0819 17:52:38.130271 16390 net.cpp:91] Creating Layer relu1_1
I0819 17:52:38.130278 16390 net.cpp:425] relu1_1 <- conv1_1
I0819 17:52:38.130287 16390 net.cpp:386] relu1_1 -> conv1_1 (in-place)
I0819 17:52:38.130440 16390 net.cpp:141] Setting up relu1_1
I0819 17:52:38.130455 16390 net.cpp:148] Top shape: 16 64 224 224 (51380224)
I0819 17:52:38.130460 16390 net.cpp:156] Memory required for data: 420675648
I0819 17:52:38.130466 16390 layer_factory.hpp:77] Creating layer conv1_2
I0819 17:52:38.130476 16390 net.cpp:91] Creating Layer conv1_2
I0819 17:52:38.130483 16390 net.cpp:425] conv1_2 <- conv1_1
I0819 17:52:38.130491 16390 net.cpp:399] conv1_2 -> conv1_2
I0819 17:52:38.131343 16390 net.cpp:141] Setting up conv1_2
I0819 17:52:38.131361 16390 net.cpp:148] Top shape: 16 64 224 224 (51380224)
I0819 17:52:38.131367 16390 net.cpp:156] Memory required for data: 626196544
I0819 17:52:38.131377 16390 layer_factory.hpp:77] Creating layer relu1_2
I0819 17:52:38.131386 16390 net.cpp:91] Creating Layer relu1_2
I0819 17:52:38.131392 16390 net.cpp:425] relu1_2 <- conv1_2
I0819 17:52:38.131400 16390 net.cpp:386] relu1_2 -> conv1_2 (in-place)
I0819 17:52:38.131748 16390 net.cpp:141] Setting up relu1_2
I0819 17:52:38.131765 16390 net.cpp:148] Top shape: 16 64 224 224 (51380224)
I0819 17:52:38.131772 16390 net.cpp:156] Memory required for data: 831717440
I0819 17:52:38.131778 16390 layer_factory.hpp:77] Creating layer pool1
I0819 17:52:38.131788 16390 net.cpp:91] Creating Layer pool1
I0819 17:52:38.131793 16390 net.cpp:425] pool1 <- conv1_2
I0819 17:52:38.131800 16390 net.cpp:399] pool1 -> pool1
I0819 17:52:38.131850 16390 net.cpp:141] Setting up pool1
I0819 17:52:38.131861 16390 net.cpp:148] Top shape: 16 64 112 112 (12845056)
I0819 17:52:38.131866 16390 net.cpp:156] Memory required for data: 883097664
I0819 17:52:38.131871 16390 layer_factory.hpp:77] Creating layer conv2_1
I0819 17:52:38.131881 16390 net.cpp:91] Creating Layer conv2_1
I0819 17:52:38.131886 16390 net.cpp:425] conv2_1 <- pool1
I0819 17:52:38.131894 16390 net.cpp:399] conv2_1 -> conv2_1
I0819 17:52:38.134913 16390 net.cpp:141] Setting up conv2_1
I0819 17:52:38.134932 16390 net.cpp:148] Top shape: 16 128 112 112 (25690112)
I0819 17:52:38.134938 16390 net.cpp:156] Memory required for data: 985858112
I0819 17:52:38.134948 16390 layer_factory.hpp:77] Creating layer relu2_1
I0819 17:52:38.134958 16390 net.cpp:91] Creating Layer relu2_1
I0819 17:52:38.134963 16390 net.cpp:425] relu2_1 <- conv2_1
I0819 17:52:38.134970 16390 net.cpp:386] relu2_1 -> conv2_1 (in-place)
I0819 17:52:38.135319 16390 net.cpp:141] Setting up relu2_1
I0819 17:52:38.135339 16390 net.cpp:148] Top shape: 16 128 112 112 (25690112)
I0819 17:52:38.135344 16390 net.cpp:156] Memory required for data: 1088618560
I0819 17:52:38.135350 16390 layer_factory.hpp:77] Creating layer conv2_2
I0819 17:52:38.135361 16390 net.cpp:91] Creating Layer conv2_2
I0819 17:52:38.135367 16390 net.cpp:425] conv2_2 <- conv2_1
I0819 17:52:38.135375 16390 net.cpp:399] conv2_2 -> conv2_2
I0819 17:52:38.136481 16390 net.cpp:141] Setting up conv2_2
I0819 17:52:38.136498 16390 net.cpp:148] Top shape: 16 128 112 112 (25690112)
I0819 17:52:38.136504 16390 net.cpp:156] Memory required for data: 1191379008
I0819 17:52:38.136512 16390 layer_factory.hpp:77] Creating layer relu2_2
I0819 17:52:38.136520 16390 net.cpp:91] Creating Layer relu2_2
I0819 17:52:38.136528 16390 net.cpp:425] relu2_2 <- conv2_2
I0819 17:52:38.136533 16390 net.cpp:386] relu2_2 -> conv2_2 (in-place)
I0819 17:52:38.136680 16390 net.cpp:141] Setting up relu2_2
I0819 17:52:38.136693 16390 net.cpp:148] Top shape: 16 128 112 112 (25690112)
I0819 17:52:38.136699 16390 net.cpp:156] Memory required for data: 1294139456
I0819 17:52:38.136723 16390 layer_factory.hpp:77] Creating layer pool2
I0819 17:52:38.136731 16390 net.cpp:91] Creating Layer pool2
I0819 17:52:38.136737 16390 net.cpp:425] pool2 <- conv2_2
I0819 17:52:38.136745 16390 net.cpp:399] pool2 -> pool2
I0819 17:52:38.136783 16390 net.cpp:141] Setting up pool2
I0819 17:52:38.136795 16390 net.cpp:148] Top shape: 16 128 56 56 (6422528)
I0819 17:52:38.136801 16390 net.cpp:156] Memory required for data: 1319829568
I0819 17:52:38.136806 16390 layer_factory.hpp:77] Creating layer conv3_1
I0819 17:52:38.136814 16390 net.cpp:91] Creating Layer conv3_1
I0819 17:52:38.136821 16390 net.cpp:425] conv3_1 <- pool2
I0819 17:52:38.136827 16390 net.cpp:399] conv3_1 -> conv3_1
I0819 17:52:38.138008 16390 net.cpp:141] Setting up conv3_1
I0819 17:52:38.138026 16390 net.cpp:148] Top shape: 16 256 56 56 (12845056)
I0819 17:52:38.138032 16390 net.cpp:156] Memory required for data: 1371209792
I0819 17:52:38.138043 16390 layer_factory.hpp:77] Creating layer relu3_1
I0819 17:52:38.138053 16390 net.cpp:91] Creating Layer relu3_1
I0819 17:52:38.138059 16390 net.cpp:425] relu3_1 <- conv3_1
I0819 17:52:38.138065 16390 net.cpp:386] relu3_1 -> conv3_1 (in-place)
I0819 17:52:38.138212 16390 net.cpp:141] Setting up relu3_1
I0819 17:52:38.138226 16390 net.cpp:148] Top shape: 16 256 56 56 (12845056)
I0819 17:52:38.138231 16390 net.cpp:156] Memory required for data: 1422590016
I0819 17:52:38.138237 16390 layer_factory.hpp:77] Creating layer conv3_2
I0819 17:52:38.138249 16390 net.cpp:91] Creating Layer conv3_2
I0819 17:52:38.138257 16390 net.cpp:425] conv3_2 <- conv3_1
I0819 17:52:38.138263 16390 net.cpp:399] conv3_2 -> conv3_2
I0819 17:52:38.140820 16390 net.cpp:141] Setting up conv3_2
I0819 17:52:38.140839 16390 net.cpp:148] Top shape: 16 256 56 56 (12845056)
I0819 17:52:38.140846 16390 net.cpp:156] Memory required for data: 1473970240
I0819 17:52:38.140853 16390 layer_factory.hpp:77] Creating layer relu3_2
I0819 17:52:38.140861 16390 net.cpp:91] Creating Layer relu3_2
I0819 17:52:38.140868 16390 net.cpp:425] relu3_2 <- conv3_2
I0819 17:52:38.140875 16390 net.cpp:386] relu3_2 -> conv3_2 (in-place)
I0819 17:52:38.141027 16390 net.cpp:141] Setting up relu3_2
I0819 17:52:38.141041 16390 net.cpp:148] Top shape: 16 256 56 56 (12845056)
I0819 17:52:38.141047 16390 net.cpp:156] Memory required for data: 1525350464
I0819 17:52:38.141052 16390 layer_factory.hpp:77] Creating layer conv3_3
I0819 17:52:38.141063 16390 net.cpp:91] Creating Layer conv3_3
I0819 17:52:38.141075 16390 net.cpp:425] conv3_3 <- conv3_2
I0819 17:52:38.141083 16390 net.cpp:399] conv3_3 -> conv3_3
I0819 17:52:38.143607 16390 net.cpp:141] Setting up conv3_3
I0819 17:52:38.143625 16390 net.cpp:148] Top shape: 16 256 56 56 (12845056)
I0819 17:52:38.143630 16390 net.cpp:156] Memory required for data: 1576730688
I0819 17:52:38.143638 16390 layer_factory.hpp:77] Creating layer relu3_3
I0819 17:52:38.143649 16390 net.cpp:91] Creating Layer relu3_3
I0819 17:52:38.143656 16390 net.cpp:425] relu3_3 <- conv3_3
I0819 17:52:38.143662 16390 net.cpp:386] relu3_3 -> conv3_3 (in-place)
I0819 17:52:38.143815 16390 net.cpp:141] Setting up relu3_3
I0819 17:52:38.143829 16390 net.cpp:148] Top shape: 16 256 56 56 (12845056)
I0819 17:52:38.143834 16390 net.cpp:156] Memory required for data: 1628110912
I0819 17:52:38.143841 16390 layer_factory.hpp:77] Creating layer pool3
I0819 17:52:38.143848 16390 net.cpp:91] Creating Layer pool3
I0819 17:52:38.143854 16390 net.cpp:425] pool3 <- conv3_3
I0819 17:52:38.143862 16390 net.cpp:399] pool3 -> pool3
I0819 17:52:38.143903 16390 net.cpp:141] Setting up pool3
I0819 17:52:38.143913 16390 net.cpp:148] Top shape: 16 256 28 28 (3211264)
I0819 17:52:38.143918 16390 net.cpp:156] Memory required for data: 1640955968
I0819 17:52:38.143923 16390 layer_factory.hpp:77] Creating layer conv4_1
I0819 17:52:38.143932 16390 net.cpp:91] Creating Layer conv4_1
I0819 17:52:38.143939 16390 net.cpp:425] conv4_1 <- pool3
I0819 17:52:38.143947 16390 net.cpp:399] conv4_1 -> conv4_1
I0819 17:52:38.148763 16390 net.cpp:141] Setting up conv4_1
I0819 17:52:38.148794 16390 net.cpp:148] Top shape: 16 512 28 28 (6422528)
I0819 17:52:38.148800 16390 net.cpp:156] Memory required for data: 1666646080
I0819 17:52:38.148809 16390 layer_factory.hpp:77] Creating layer relu4_1
I0819 17:52:38.148818 16390 net.cpp:91] Creating Layer relu4_1
I0819 17:52:38.148825 16390 net.cpp:425] relu4_1 <- conv4_1
I0819 17:52:38.148833 16390 net.cpp:386] relu4_1 -> conv4_1 (in-place)
I0819 17:52:38.149193 16390 net.cpp:141] Setting up relu4_1
I0819 17:52:38.149210 16390 net.cpp:148] Top shape: 16 512 28 28 (6422528)
I0819 17:52:38.149216 16390 net.cpp:156] Memory required for data: 1692336192
I0819 17:52:38.149221 16390 layer_factory.hpp:77] Creating layer conv4_2
I0819 17:52:38.149231 16390 net.cpp:91] Creating Layer conv4_2
I0819 17:52:38.149237 16390 net.cpp:425] conv4_2 <- conv4_1
I0819 17:52:38.149246 16390 net.cpp:399] conv4_2 -> conv4_2
I0819 17:52:38.155225 16390 net.cpp:141] Setting up conv4_2
I0819 17:52:38.155247 16390 net.cpp:148] Top shape: 16 512 28 28 (6422528)
I0819 17:52:38.155253 16390 net.cpp:156] Memory required for data: 1718026304
I0819 17:52:38.155267 16390 layer_factory.hpp:77] Creating layer relu4_2
I0819 17:52:38.155277 16390 net.cpp:91] Creating Layer relu4_2
I0819 17:52:38.155284 16390 net.cpp:425] relu4_2 <- conv4_2
I0819 17:52:38.155292 16390 net.cpp:386] relu4_2 -> conv4_2 (in-place)
I0819 17:52:38.155676 16390 net.cpp:141] Setting up relu4_2
I0819 17:52:38.155694 16390 net.cpp:148] Top shape: 16 512 28 28 (6422528)
I0819 17:52:38.155699 16390 net.cpp:156] Memory required for data: 1743716416
I0819 17:52:38.155705 16390 layer_factory.hpp:77] Creating layer conv4_3
I0819 17:52:38.155716 16390 net.cpp:91] Creating Layer conv4_3
I0819 17:52:38.155730 16390 net.cpp:425] conv4_3 <- conv4_2
I0819 17:52:38.155737 16390 net.cpp:399] conv4_3 -> conv4_3
I0819 17:52:38.162065 16390 net.cpp:141] Setting up conv4_3
I0819 17:52:38.162089 16390 net.cpp:148] Top shape: 16 512 28 28 (6422528)
I0819 17:52:38.162096 16390 net.cpp:156] Memory required for data: 1769406528
I0819 17:52:38.162104 16390 layer_factory.hpp:77] Creating layer relu4_3
I0819 17:52:38.162114 16390 net.cpp:91] Creating Layer relu4_3
I0819 17:52:38.162122 16390 net.cpp:425] relu4_3 <- conv4_3
I0819 17:52:38.162130 16390 net.cpp:386] relu4_3 -> conv4_3 (in-place)
I0819 17:52:38.162277 16390 net.cpp:141] Setting up relu4_3
I0819 17:52:38.162291 16390 net.cpp:148] Top shape: 16 512 28 28 (6422528)
I0819 17:52:38.162297 16390 net.cpp:156] Memory required for data: 1795096640
I0819 17:52:38.162302 16390 layer_factory.hpp:77] Creating layer pool4
I0819 17:52:38.162310 16390 net.cpp:91] Creating Layer pool4
I0819 17:52:38.162317 16390 net.cpp:425] pool4 <- conv4_3
I0819 17:52:38.162324 16390 net.cpp:399] pool4 -> pool4
I0819 17:52:38.162364 16390 net.cpp:141] Setting up pool4
I0819 17:52:38.162374 16390 net.cpp:148] Top shape: 16 512 14 14 (1605632)
I0819 17:52:38.162379 16390 net.cpp:156] Memory required for data: 1801519168
I0819 17:52:38.162385 16390 layer_factory.hpp:77] Creating layer conv5_1
I0819 17:52:38.162396 16390 net.cpp:91] Creating Layer conv5_1
I0819 17:52:38.162402 16390 net.cpp:425] conv5_1 <- pool4
I0819 17:52:38.162410 16390 net.cpp:399] conv5_1 -> conv5_1
I0819 17:52:38.168963 16390 net.cpp:141] Setting up conv5_1
I0819 17:52:38.168987 16390 net.cpp:148] Top shape: 16 512 14 14 (1605632)
I0819 17:52:38.168992 16390 net.cpp:156] Memory required for data: 1807941696
I0819 17:52:38.169001 16390 layer_factory.hpp:77] Creating layer relu5_1
I0819 17:52:38.169010 16390 net.cpp:91] Creating Layer relu5_1
I0819 17:52:38.169018 16390 net.cpp:425] relu5_1 <- conv5_1
I0819 17:52:38.169025 16390 net.cpp:386] relu5_1 -> conv5_1 (in-place)
I0819 17:52:38.169176 16390 net.cpp:141] Setting up relu5_1
I0819 17:52:38.169190 16390 net.cpp:148] Top shape: 16 512 14 14 (1605632)
I0819 17:52:38.169195 16390 net.cpp:156] Memory required for data: 1814364224
I0819 17:52:38.169201 16390 layer_factory.hpp:77] Creating layer conv5_2
I0819 17:52:38.169212 16390 net.cpp:91] Creating Layer conv5_2
I0819 17:52:38.169237 16390 net.cpp:425] conv5_2 <- conv5_1
I0819 17:52:38.169246 16390 net.cpp:399] conv5_2 -> conv5_2
I0819 17:52:38.175439 16390 net.cpp:141] Setting up conv5_2
I0819 17:52:38.175460 16390 net.cpp:148] Top shape: 16 512 14 14 (1605632)
I0819 17:52:38.175467 16390 net.cpp:156] Memory required for data: 1820786752
I0819 17:52:38.175474 16390 layer_factory.hpp:77] Creating layer relu5_2
I0819 17:52:38.175484 16390 net.cpp:91] Creating Layer relu5_2
I0819 17:52:38.175490 16390 net.cpp:425] relu5_2 <- conv5_2
I0819 17:52:38.175499 16390 net.cpp:386] relu5_2 -> conv5_2 (in-place)
I0819 17:52:38.175652 16390 net.cpp:141] Setting up relu5_2
I0819 17:52:38.175667 16390 net.cpp:148] Top shape: 16 512 14 14 (1605632)
I0819 17:52:38.175671 16390 net.cpp:156] Memory required for data: 1827209280
I0819 17:52:38.175678 16390 layer_factory.hpp:77] Creating layer conv5_3
I0819 17:52:38.175688 16390 net.cpp:91] Creating Layer conv5_3
I0819 17:52:38.175695 16390 net.cpp:425] conv5_3 <- conv5_2
I0819 17:52:38.175704 16390 net.cpp:399] conv5_3 -> conv5_3
I0819 17:52:38.181957 16390 net.cpp:141] Setting up conv5_3
I0819 17:52:38.181980 16390 net.cpp:148] Top shape: 16 512 14 14 (1605632)
I0819 17:52:38.181987 16390 net.cpp:156] Memory required for data: 1833631808
I0819 17:52:38.181994 16390 layer_factory.hpp:77] Creating layer relu5_3
I0819 17:52:38.182005 16390 net.cpp:91] Creating Layer relu5_3
I0819 17:52:38.182013 16390 net.cpp:425] relu5_3 <- conv5_3
I0819 17:52:38.182020 16390 net.cpp:386] relu5_3 -> conv5_3 (in-place)
I0819 17:52:38.182163 16390 net.cpp:141] Setting up relu5_3
I0819 17:52:38.182176 16390 net.cpp:148] Top shape: 16 512 14 14 (1605632)
I0819 17:52:38.182181 16390 net.cpp:156] Memory required for data: 1840054336
I0819 17:52:38.182188 16390 layer_factory.hpp:77] Creating layer pool5
I0819 17:52:38.182196 16390 net.cpp:91] Creating Layer pool5
I0819 17:52:38.182202 16390 net.cpp:425] pool5 <- conv5_3
I0819 17:52:38.182210 16390 net.cpp:399] pool5 -> pool5
I0819 17:52:38.182255 16390 net.cpp:141] Setting up pool5
I0819 17:52:38.182265 16390 net.cpp:148] Top shape: 16 512 7 7 (401408)
I0819 17:52:38.182271 16390 net.cpp:156] Memory required for data: 1841659968
I0819 17:52:38.182276 16390 layer_factory.hpp:77] Creating layer fc6
I0819 17:52:38.182294 16390 net.cpp:91] Creating Layer fc6
I0819 17:52:38.182304 16390 net.cpp:425] fc6 <- pool5
I0819 17:52:38.182312 16390 net.cpp:399] fc6 -> fc6
I0819 17:52:38.437085 16390 net.cpp:141] Setting up fc6
I0819 17:52:38.437126 16390 net.cpp:148] Top shape: 16 4096 (65536)
I0819 17:52:38.437132 16390 net.cpp:156] Memory required for data: 1841922112
I0819 17:52:38.437144 16390 layer_factory.hpp:77] Creating layer relu6
I0819 17:52:38.437155 16390 net.cpp:91] Creating Layer relu6
I0819 17:52:38.437161 16390 net.cpp:425] relu6 <- fc6
I0819 17:52:38.437171 16390 net.cpp:386] relu6 -> fc6 (in-place)
I0819 17:52:38.437707 16390 net.cpp:141] Setting up relu6
I0819 17:52:38.437724 16390 net.cpp:148] Top shape: 16 4096 (65536)
I0819 17:52:38.437731 16390 net.cpp:156] Memory required for data: 1842184256
I0819 17:52:38.437736 16390 layer_factory.hpp:77] Creating layer drop6
I0819 17:52:38.437747 16390 net.cpp:91] Creating Layer drop6
I0819 17:52:38.437753 16390 net.cpp:425] drop6 <- fc6
I0819 17:52:38.437759 16390 net.cpp:386] drop6 -> fc6 (in-place)
I0819 17:52:38.437791 16390 net.cpp:141] Setting up drop6
I0819 17:52:38.437801 16390 net.cpp:148] Top shape: 16 4096 (65536)
I0819 17:52:38.437808 16390 net.cpp:156] Memory required for data: 1842446400
I0819 17:52:38.437813 16390 layer_factory.hpp:77] Creating layer fc7
I0819 17:52:38.437821 16390 net.cpp:91] Creating Layer fc7
I0819 17:52:38.437826 16390 net.cpp:425] fc7 <- fc6
I0819 17:52:38.437834 16390 net.cpp:399] fc7 -> fc7
I0819 17:52:38.479912 16390 net.cpp:141] Setting up fc7
I0819 17:52:38.479949 16390 net.cpp:148] Top shape: 16 4096 (65536)
I0819 17:52:38.479956 16390 net.cpp:156] Memory required for data: 1842708544
I0819 17:52:38.479967 16390 layer_factory.hpp:77] Creating layer relu7
I0819 17:52:38.479980 16390 net.cpp:91] Creating Layer relu7
I0819 17:52:38.480010 16390 net.cpp:425] relu7 <- fc7
I0819 17:52:38.480018 16390 net.cpp:386] relu7 -> fc7 (in-place)
I0819 17:52:38.480232 16390 net.cpp:141] Setting up relu7
I0819 17:52:38.480247 16390 net.cpp:148] Top shape: 16 4096 (65536)
I0819 17:52:38.480252 16390 net.cpp:156] Memory required for data: 1842970688
I0819 17:52:38.480257 16390 layer_factory.hpp:77] Creating layer drop7
I0819 17:52:38.480265 16390 net.cpp:91] Creating Layer drop7
I0819 17:52:38.480273 16390 net.cpp:425] drop7 <- fc7
I0819 17:52:38.480279 16390 net.cpp:386] drop7 -> fc7 (in-place)
I0819 17:52:38.480309 16390 net.cpp:141] Setting up drop7
I0819 17:52:38.480321 16390 net.cpp:148] Top shape: 16 4096 (65536)
I0819 17:52:38.480326 16390 net.cpp:156] Memory required for data: 1843232832
I0819 17:52:38.480332 16390 layer_factory.hpp:77] Creating layer fc8
I0819 17:52:38.480340 16390 net.cpp:91] Creating Layer fc8
I0819 17:52:38.480345 16390 net.cpp:425] fc8 <- fc7
I0819 17:52:38.480352 16390 net.cpp:399] fc8 -> fc8
I0819 17:52:38.490535 16390 net.cpp:141] Setting up fc8
I0819 17:52:38.490571 16390 net.cpp:148] Top shape: 16 1000 (16000)
I0819 17:52:38.490578 16390 net.cpp:156] Memory required for data: 1843296832
I0819 17:52:38.490588 16390 layer_factory.hpp:77] Creating layer loss
I0819 17:52:38.490599 16390 net.cpp:91] Creating Layer loss
I0819 17:52:38.490607 16390 net.cpp:425] loss <- fc8
I0819 17:52:38.490615 16390 net.cpp:425] loss <- label
I0819 17:52:38.490623 16390 net.cpp:399] loss -> loss/loss
I0819 17:52:38.490643 16390 layer_factory.hpp:77] Creating layer loss
…
I0819 17:52:38.491932 16390 solver.cpp:181] Creating test net (#0) specified by net file: vgg16_train_val.prototxt
I0819 17:52:38.491974 16390 net.cpp:313] The NetState phase (1) differed from the phase (0) specified by a rule in layer data
I0819 17:52:38.492136 16390 net.cpp:49] Initializing net from parameters: 
name: "VGG_ILSVRC_16_layers"
state {
  phase: TEST
}
layer {
  name: "data"
  type: "ImageData"
  top: "data"
  top: "label"
  include {
    phase: TEST
  }
  transform_param {
    crop_size: 224
  }
  image_data_param {
    source: "images/list.txt"
    batch_size: 16
  }
}
layer {
  name: "conv1_1"
  type: "Convolution"
  bottom: "data"
  top: "conv1_1"
  param {
    lr_mult: 0.001
  }
  param {
    lr_mult: 0.001
  }
  convolution_param {
    num_output: 64
    pad: 1
    kernel_size: 3
  }
}
layer {
  name: "relu1_1"
  type: "ReLU"
  bottom: "conv1_1"
  top: "conv1_1"
}
layer {
  name: "conv1_2"
  type: "Convolution"
  bottom: "conv1_1"
  top: "conv1_2"
  param {
    lr_mult: 0.001
  }
  param {
    lr_mult: 0.001
  }
  convolution_param {
    num_output: 64
    pad: 1
    kernel_size: 3
  }
}
layer {
  name: "relu1_2"
  type: "ReLU"
  bottom: "conv1_2"
  top: "conv1_2"
}
layer {
  name: "pool1"
  type: "Pooling"
  bottom: "conv1_2"
  top: "pool1"
  pooling_param {
    pool: MAX
    kernel_size: 2
    stride: 2
  }
}
layer {
  name: "conv2_1"
  type: "Convolution"
  bottom: "pool1"
  top: "conv2_1"
  param {
    lr_mult: 0.001
  }
  param {
    lr_mult: 0.001
  }
  convolution_param {
    num_output: 128
    pad: 1
    kernel_size: 3
  }
}
layer {
  name: "relu2_1"
  type: "ReLU"
  bottom: "conv2_1"
  top: "conv2_1"
}
layer {
  name: "conv2_2"
  type: "Convolution"
  bottom: "conv2_1"
  top: "conv2_2"
  param {
    lr_mult: 0.001
  }
  param {
    lr_mult: 0.001
  }
  convolution_param {
    num_output: 128
    pad: 1
    kernel_size: 3
  }
}
layer {
  name: "relu2_2"
  type: "ReLU"
  bottom: "conv2_2"
  top: "conv2_2"
}
layer {
  name: "pool2"
  type: "Pooling"
  bottom: "conv2_2"
  top: "pool2"
  pooling_param {
    pool: MAX
    kernel_size: 2
    stride: 2
  }
}
layer {
  name: "conv3_1"
  type: "Convolution"
  bottom: "pool2"
  top: "conv3_1"
  param {
    lr_mult: 0.001
  }
  param {
    lr_mult: 0.001
  }
  convolution_param {
    num_output: 256
    pad: 1
    kernel_size: 3
  }
}
layer {
  name: "relu3_1"
  type: "ReLU"
  bottom: "conv3_1"
  top: "conv3_1"
}
layer {
  name: "conv3_2"
  type: "Convolution"
  bottom: "conv3_1"
  top: "conv3_2"
  param {
    lr_mult: 0.001
  }
  param {
    lr_mult: 0.001
  }
  convolution_param {
    num_output: 256
    pad: 1
    kernel_size: 3
  }
}
layer {
  name: "relu3_2"
  type: "ReLU"
  bottom: "conv3_2"
  top: "conv3_2"
}
layer {
  name: "conv3_3"
  type: "Convolution"
  bottom: "conv3_2"
  top: "conv3_3"
  param {
    lr_mult: 0.001
  }
  param {
    lr_mult: 0.001
  }
  convolution_param {
    num_output: 256
    pad: 1
    kernel_size: 3
  }
}
layer {
  name: "relu3_3"
  type: "ReLU"
  bottom: "conv3_3"
  top: "conv3_3"
}
layer {
  name: "pool3"
  type: "Pooling"
  bottom: "conv3_3"
  top: "pool3"
  pooling_param {
    pool: MAX
    kernel_size: 2
    stride: 2
  }
}
layer {
  name: "conv4_1"
  type: "Convolution"
  bottom: "pool3"
  top: "conv4_1"
  param {
    lr_mult: 0.001
  }
  param {
    lr_mult: 0.001
  }
  convolution_param {
    num_output: 512
    pad: 1
    kernel_size: 3
  }
}
layer {
  name: "relu4_1"
  type: "ReLU"
  bottom: "conv4_1"
  top: "conv4_1"
}
layer {
  name: "conv4_2"
  type: "Convolution"
  bottom: "conv4_1"
  top: "conv4_2"
  param {
    lr_mult: 0.001
  }
  param {
    lr_mult: 0.001
  }
  convolution_param {
    num_output: 512
    pad: 1
    kernel_size: 3
  }
}
layer {
  name: "relu4_2"
  type: "ReLU"
  bottom: "conv4_2"
  top: "conv4_2"
}
layer {
  name: "conv4_3"
  type: "Convolution"
  bottom: "conv4_2"
  top: "conv4_3"
  param {
    lr_mult: 0.001
  }
  param {
    lr_mult: 0.001
  }
  convolution_param {
    num_output: 512
    pad: 1
    kernel_size: 3
  }
}
layer {
  name: "relu4_3"
  type: "ReLU"
  bottom: "conv4_3"
  top: "conv4_3"
}
layer {
  name: "pool4"
  type: "Pooling"
  bottom: "conv4_3"
  top: "pool4"
  pooling_param {
    pool: MAX
    kernel_size: 2
    stride: 2
  }
}
layer {
  name: "conv5_1"
  type: "Convolution"
  bottom: "pool4"
  top: "conv5_1"
  param {
    lr_mult: 0.001
  }
  param {
    lr_mult: 0.001
  }
  convolution_param {
    num_output: 512
    pad: 1
    kernel_size: 3
  }
}
layer {
  name: "relu5_1"
  type: "ReLU"
  bottom: "conv5_1"
  top: "conv5_1"
}
layer {
  name: "conv5_2"
  type: "Convolution"
  bottom: "conv5_1"
  top: "conv5_2"
  param {
    lr_mult: 0.001
  }
  param {
    lr_mult: 0.001
  }
  convolution_param {
    num_output: 512
    pad: 1
    kernel_size: 3
  }
}
layer {
  name: "relu5_2"
  type: "ReLU"
  bottom: "conv5_2"
  top: "conv5_2"
}
layer {
  name: "conv5_3"
  type: "Convolution"
  bottom: "conv5_2"
  top: "conv5_3"
  param {
    lr_mult: 0.001
  }
  param {
    lr_mult: 0.001
  }
  convolution_param {
    num_output: 512
    pad: 1
    kernel_size: 3
  }
}
layer {
  name: "relu5_3"
  type: "ReLU"
  bottom: "conv5_3"
  top: "conv5_3"
}
layer {
  name: "pool5"
  type: "Pooling"
  bottom: "conv5_3"
  top: "pool5"
  pooling_param {
    pool: MAX
    kernel_size: 2
    stride: 2
  }
}
layer {
  name: "fc6"
  type: "InnerProduct"
  bottom: "pool5"
  top: "fc6"
  param {
    lr_mult: 0.001
  }
  param {
    lr_mult: 0.001
  }
  inner_product_param {
    num_output: 4096
  }
}
layer {
  name: "relu6"
  type: "ReLU"
  bottom: "fc6"
  top: "fc6"
}
layer {
  name: "drop6"
  type: "Dropout"
  bottom: "fc6"
  top: "fc6"
  dropout_param {
    dropout_ratio: 0.5
  }
}
layer {
  name: "fc7"
  type: "InnerProduct"
  bottom: "fc6"
  top: "fc7"
  param {
    lr_mult: 0.001
  }
  param {
    lr_mult: 0.001
  }
  inner_product_param {
    num_output: 4096
  }
}
layer {
  name: "relu7"
  type: "ReLU"
  bottom: "fc7"
  top: "fc7"
}
layer {
  name: "drop7"
  type: "Dropout"
  bottom: "fc7"
  top: "fc7"
  dropout_param {
    dropout_ratio: 0.5
  }
}
layer {
  name: "fc8"
  type: "InnerProduct"
  bottom: "fc7"
  top: "fc8"
  param {
    lr_mult: 0.001
  }
  param {
    lr_mult: 0.001
  }
  inner_product_param {
    num_output: 1000
  }
}
layer {
  name: "loss"
  type: "SoftmaxWithLoss"
  bottom: "fc8"
  bottom: "label"
  top: "loss/loss"
}
layer {
  name: "accuracy/top1"
  type: "Accuracy"
  bottom: "fc8"
  bottom: "label"
  top: "accuracy@1"
  include {
    phase: TEST
  }
  accuracy_param {
    top_k: 1
  }
}
layer {
  name: "accuracy/top5"
  type: "Accuracy"
  bottom: "fc8"
  bottom: "label"
  top: "accuracy@5"
  include {
    phase: TEST
  }
  accuracy_param {
    top_k: 5
  }
}
I0819 17:52:38.493366 16390 layer_factory.hpp:77] Creating layer data
I0819 17:52:38.493383 16390 net.cpp:91] Creating Layer data
I0819 17:52:38.493389 16390 net.cpp:399] data -> data
I0819 17:52:38.493399 16390 net.cpp:399] data -> label
I0819 17:52:38.493417 16390 image_data_layer.cpp:38] Opening file images/list.txt
I0819 17:52:38.493441 16390 image_data_layer.cpp:58] A total of 16 images.
I0819 17:52:38.493769 16390 image_data_layer.cpp:85] output data size: 16,3,224,224
I0819 17:52:38.513286 16390 net.cpp:141] Setting up data
I0819 17:52:38.513321 16390 net.cpp:148] Top shape: 16 3 224 224 (2408448)
I0819 17:52:38.513329 16390 net.cpp:148] Top shape: 16 (16)
I0819 17:52:38.513335 16390 net.cpp:156] Memory required for data: 9633856
I0819 17:52:38.513344 16390 layer_factory.hpp:77] Creating layer label_data_1_split
I0819 17:52:38.513362 16390 net.cpp:91] Creating Layer label_data_1_split
I0819 17:52:38.513370 16390 net.cpp:425] label_data_1_split <- label
I0819 17:52:38.513377 16390 net.cpp:399] label_data_1_split -> label_data_1_split_0
I0819 17:52:38.513389 16390 net.cpp:399] label_data_1_split -> label_data_1_split_1
I0819 17:52:38.513397 16390 net.cpp:399] label_data_1_split -> label_data_1_split_2
I0819 17:52:38.513461 16390 net.cpp:141] Setting up label_data_1_split
I0819 17:52:38.513473 16390 net.cpp:148] Top shape: 16 (16)
I0819 17:52:38.513478 16390 net.cpp:148] Top shape: 16 (16)
I0819 17:52:38.513484 16390 net.cpp:148] Top shape: 16 (16)
I0819 17:52:38.513490 16390 net.cpp:156] Memory required for data: 9634048
I0819 17:52:38.513496 16390 layer_factory.hpp:77] Creating layer conv1_1
I0819 17:52:38.513509 16390 net.cpp:91] Creating Layer conv1_1
I0819 17:52:38.513519 16390 net.cpp:425] conv1_1 <- data
I0819 17:52:38.513526 16390 net.cpp:399] conv1_1 -> conv1_1
I0819 17:52:38.514583 16390 net.cpp:141] Setting up conv1_1
I0819 17:52:38.514601 16390 net.cpp:148] Top shape: 16 64 224 224 (51380224)
I0819 17:52:38.514607 16390 net.cpp:156] Memory required for data: 215154944
I0819 17:52:38.514618 16390 layer_factory.hpp:77] Creating layer relu1_1
I0819 17:52:38.514629 16390 net.cpp:91] Creating Layer relu1_1
I0819 17:52:38.514636 16390 net.cpp:425] relu1_1 <- conv1_1
I0819 17:52:38.514642 16390 net.cpp:386] relu1_1 -> conv1_1 (in-place)
I0819 17:52:38.514791 16390 net.cpp:141] Setting up relu1_1
I0819 17:52:38.514804 16390 net.cpp:148] Top shape: 16 64 224 224 (51380224)
I0819 17:52:38.514811 16390 net.cpp:156] Memory required for data: 420675840
I0819 17:52:38.514816 16390 layer_factory.hpp:77] Creating layer conv1_2
I0819 17:52:38.514827 16390 net.cpp:91] Creating Layer conv1_2
I0819 17:52:38.514832 16390 net.cpp:425] conv1_2 <- conv1_1
I0819 17:52:38.514840 16390 net.cpp:399] conv1_2 -> conv1_2
I0819 17:52:38.517611 16390 net.cpp:141] Setting up conv1_2
I0819 17:52:38.517630 16390 net.cpp:148] Top shape: 16 64 224 224 (51380224)
I0819 17:52:38.517637 16390 net.cpp:156] Memory required for data: 626196736
I0819 17:52:38.517647 16390 layer_factory.hpp:77] Creating layer relu1_2
I0819 17:52:38.517657 16390 net.cpp:91] Creating Layer relu1_2
I0819 17:52:38.517663 16390 net.cpp:425] relu1_2 <- conv1_2
I0819 17:52:38.517669 16390 net.cpp:386] relu1_2 -> conv1_2 (in-place)
I0819 17:52:38.518064 16390 net.cpp:141] Setting up relu1_2
I0819 17:52:38.518081 16390 net.cpp:148] Top shape: 16 64 224 224 (51380224)
I0819 17:52:38.518087 16390 net.cpp:156] Memory required for data: 831717632
I0819 17:52:38.518093 16390 layer_factory.hpp:77] Creating layer pool1
I0819 17:52:38.518102 16390 net.cpp:91] Creating Layer pool1
I0819 17:52:38.518108 16390 net.cpp:425] pool1 <- conv1_2
I0819 17:52:38.518116 16390 net.cpp:399] pool1 -> pool1
I0819 17:52:38.518167 16390 net.cpp:141] Setting up pool1
I0819 17:52:38.518178 16390 net.cpp:148] Top shape: 16 64 112 112 (12845056)
I0819 17:52:38.518183 16390 net.cpp:156] Memory required for data: 883097856
I0819 17:52:38.518188 16390 layer_factory.hpp:77] Creating layer conv2_1
I0819 17:52:38.518198 16390 net.cpp:91] Creating Layer conv2_1
I0819 17:52:38.518203 16390 net.cpp:425] conv2_1 <- pool1
I0819 17:52:38.518211 16390 net.cpp:399] conv2_1 -> conv2_1
I0819 17:52:38.520243 16390 net.cpp:141] Setting up conv2_1
I0819 17:52:38.520262 16390 net.cpp:148] Top shape: 16 128 112 112 (25690112)
I0819 17:52:38.520285 16390 net.cpp:156] Memory required for data: 985858304
I0819 17:52:38.520298 16390 layer_factory.hpp:77] Creating layer relu2_1
I0819 17:52:38.520308 16390 net.cpp:91] Creating Layer relu2_1
I0819 17:52:38.520313 16390 net.cpp:425] relu2_1 <- conv2_1
I0819 17:52:38.520320 16390 net.cpp:386] relu2_1 -> conv2_1 (in-place)
I0819 17:52:38.520738 16390 net.cpp:141] Setting up relu2_1
I0819 17:52:38.520756 16390 net.cpp:148] Top shape: 16 128 112 112 (25690112)
I0819 17:52:38.520762 16390 net.cpp:156] Memory required for data: 1088618752
I0819 17:52:38.520768 16390 layer_factory.hpp:77] Creating layer conv2_2
I0819 17:52:38.520779 16390 net.cpp:91] Creating Layer conv2_2
I0819 17:52:38.520787 16390 net.cpp:425] conv2_2 <- conv2_1
I0819 17:52:38.520793 16390 net.cpp:399] conv2_2 -> conv2_2
I0819 17:52:38.522027 16390 net.cpp:141] Setting up conv2_2
I0819 17:52:38.522045 16390 net.cpp:148] Top shape: 16 128 112 112 (25690112)
I0819 17:52:38.522052 16390 net.cpp:156] Memory required for data: 1191379200
I0819 17:52:38.522060 16390 layer_factory.hpp:77] Creating layer relu2_2
I0819 17:52:38.522069 16390 net.cpp:91] Creating Layer relu2_2
I0819 17:52:38.522075 16390 net.cpp:425] relu2_2 <- conv2_2
I0819 17:52:38.522081 16390 net.cpp:386] relu2_2 -> conv2_2 (in-place)
I0819 17:52:38.522240 16390 net.cpp:141] Setting up relu2_2
I0819 17:52:38.522253 16390 net.cpp:148] Top shape: 16 128 112 112 (25690112)
I0819 17:52:38.522259 16390 net.cpp:156] Memory required for data: 1294139648
I0819 17:52:38.522265 16390 layer_factory.hpp:77] Creating layer pool2
I0819 17:52:38.522274 16390 net.cpp:91] Creating Layer pool2
I0819 17:52:38.522279 16390 net.cpp:425] pool2 <- conv2_2
I0819 17:52:38.522286 16390 net.cpp:399] pool2 -> pool2
I0819 17:52:38.522328 16390 net.cpp:141] Setting up pool2
I0819 17:52:38.522341 16390 net.cpp:148] Top shape: 16 128 56 56 (6422528)
I0819 17:52:38.522346 16390 net.cpp:156] Memory required for data: 1319829760
I0819 17:52:38.522351 16390 layer_factory.hpp:77] Creating layer conv3_1
I0819 17:52:38.522362 16390 net.cpp:91] Creating Layer conv3_1
I0819 17:52:38.522374 16390 net.cpp:425] conv3_1 <- pool2
I0819 17:52:38.522382 16390 net.cpp:399] conv3_1 -> conv3_1
I0819 17:52:38.523737 16390 net.cpp:141] Setting up conv3_1
I0819 17:52:38.523756 16390 net.cpp:148] Top shape: 16 256 56 56 (12845056)
I0819 17:52:38.523761 16390 net.cpp:156] Memory required for data: 1371209984
I0819 17:52:38.523773 16390 layer_factory.hpp:77] Creating layer relu3_1
I0819 17:52:38.523782 16390 net.cpp:91] Creating Layer relu3_1
I0819 17:52:38.523787 16390 net.cpp:425] relu3_1 <- conv3_1
I0819 17:52:38.523794 16390 net.cpp:386] relu3_1 -> conv3_1 (in-place)
I0819 17:52:38.523953 16390 net.cpp:141] Setting up relu3_1
I0819 17:52:38.523967 16390 net.cpp:148] Top shape: 16 256 56 56 (12845056)
I0819 17:52:38.523972 16390 net.cpp:156] Memory required for data: 1422590208
I0819 17:52:38.523978 16390 layer_factory.hpp:77] Creating layer conv3_2
I0819 17:52:38.523989 16390 net.cpp:91] Creating Layer conv3_2
I0819 17:52:38.524000 16390 net.cpp:425] conv3_2 <- conv3_1
I0819 17:52:38.524008 16390 net.cpp:399] conv3_2 -> conv3_2
I0819 17:52:38.526756 16390 net.cpp:141] Setting up conv3_2
I0819 17:52:38.526773 16390 net.cpp:148] Top shape: 16 256 56 56 (12845056)
I0819 17:52:38.526779 16390 net.cpp:156] Memory required for data: 1473970432
I0819 17:52:38.526788 16390 layer_factory.hpp:77] Creating layer relu3_2
I0819 17:52:38.526796 16390 net.cpp:91] Creating Layer relu3_2
I0819 17:52:38.526803 16390 net.cpp:425] relu3_2 <- conv3_2
I0819 17:52:38.526809 16390 net.cpp:386] relu3_2 -> conv3_2 (in-place)
I0819 17:52:38.526968 16390 net.cpp:141] Setting up relu3_2
I0819 17:52:38.526983 16390 net.cpp:148] Top shape: 16 256 56 56 (12845056)
I0819 17:52:38.526988 16390 net.cpp:156] Memory required for data: 1525350656
I0819 17:52:38.526994 16390 layer_factory.hpp:77] Creating layer conv3_3
I0819 17:52:38.527005 16390 net.cpp:91] Creating Layer conv3_3
I0819 17:52:38.527016 16390 net.cpp:425] conv3_3 <- conv3_2
I0819 17:52:38.527024 16390 net.cpp:399] conv3_3 -> conv3_3
I0819 17:52:38.529808 16390 net.cpp:141] Setting up conv3_3
I0819 17:52:38.529826 16390 net.cpp:148] Top shape: 16 256 56 56 (12845056)
I0819 17:52:38.529832 16390 net.cpp:156] Memory required for data: 1576730880
I0819 17:52:38.529841 16390 layer_factory.hpp:77] Creating layer relu3_3
I0819 17:52:38.529850 16390 net.cpp:91] Creating Layer relu3_3
I0819 17:52:38.529856 16390 net.cpp:425] relu3_3 <- conv3_3
I0819 17:52:38.529863 16390 net.cpp:386] relu3_3 -> conv3_3 (in-place)
I0819 17:52:38.530024 16390 net.cpp:141] Setting up relu3_3
I0819 17:52:38.530036 16390 net.cpp:148] Top shape: 16 256 56 56 (12845056)
I0819 17:52:38.530042 16390 net.cpp:156] Memory required for data: 1628111104
I0819 17:52:38.530048 16390 layer_factory.hpp:77] Creating layer pool3
I0819 17:52:38.530058 16390 net.cpp:91] Creating Layer pool3
I0819 17:52:38.530064 16390 net.cpp:425] pool3 <- conv3_3
I0819 17:52:38.530071 16390 net.cpp:399] pool3 -> pool3
I0819 17:52:38.530114 16390 net.cpp:141] Setting up pool3
I0819 17:52:38.530124 16390 net.cpp:148] Top shape: 16 256 28 28 (3211264)
I0819 17:52:38.530130 16390 net.cpp:156] Memory required for data: 1640956160
I0819 17:52:38.530135 16390 layer_factory.hpp:77] Creating layer conv4_1
I0819 17:52:38.530146 16390 net.cpp:91] Creating Layer conv4_1
I0819 17:52:38.530153 16390 net.cpp:425] conv4_1 <- pool3
I0819 17:52:38.530160 16390 net.cpp:399] conv4_1 -> conv4_1
I0819 17:52:38.534253 16390 net.cpp:141] Setting up conv4_1
I0819 17:52:38.534272 16390 net.cpp:148] Top shape: 16 512 28 28 (6422528)
I0819 17:52:38.534278 16390 net.cpp:156] Memory required for data: 1666646272
I0819 17:52:38.534286 16390 layer_factory.hpp:77] Creating layer relu4_1
I0819 17:52:38.534294 16390 net.cpp:91] Creating Layer relu4_1
I0819 17:52:38.534302 16390 net.cpp:425] relu4_1 <- conv4_1
I0819 17:52:38.534310 16390 net.cpp:386] relu4_1 -> conv4_1 (in-place)
I0819 17:52:38.534729 16390 net.cpp:141] Setting up relu4_1
I0819 17:52:38.534749 16390 net.cpp:148] Top shape: 16 512 28 28 (6422528)
I0819 17:52:38.534754 16390 net.cpp:156] Memory required for data: 1692336384
I0819 17:52:38.534760 16390 layer_factory.hpp:77] Creating layer conv4_2
I0819 17:52:38.534770 16390 net.cpp:91] Creating Layer conv4_2
I0819 17:52:38.534775 16390 net.cpp:425] conv4_2 <- conv4_1
I0819 17:52:38.534785 16390 net.cpp:399] conv4_2 -> conv4_2
I0819 17:52:38.541152 16390 net.cpp:141] Setting up conv4_2
I0819 17:52:38.541178 16390 net.cpp:148] Top shape: 16 512 28 28 (6422528)
I0819 17:52:38.541185 16390 net.cpp:156] Memory required for data: 1718026496
I0819 17:52:38.541198 16390 layer_factory.hpp:77] Creating layer relu4_2
I0819 17:52:38.541209 16390 net.cpp:91] Creating Layer relu4_2
I0819 17:52:38.541216 16390 net.cpp:425] relu4_2 <- conv4_2
I0819 17:52:38.541224 16390 net.cpp:386] relu4_2 -> conv4_2 (in-place)
I0819 17:52:38.541674 16390 net.cpp:141] Setting up relu4_2
I0819 17:52:38.541692 16390 net.cpp:148] Top shape: 16 512 28 28 (6422528)
I0819 17:52:38.541698 16390 net.cpp:156] Memory required for data: 1743716608
I0819 17:52:38.541703 16390 layer_factory.hpp:77] Creating layer conv4_3
I0819 17:52:38.541715 16390 net.cpp:91] Creating Layer conv4_3
I0819 17:52:38.541721 16390 net.cpp:425] conv4_3 <- conv4_2
I0819 17:52:38.541729 16390 net.cpp:399] conv4_3 -> conv4_3
I0819 17:52:38.548261 16390 net.cpp:141] Setting up conv4_3
I0819 17:52:38.548281 16390 net.cpp:148] Top shape: 16 512 28 28 (6422528)
I0819 17:52:38.548287 16390 net.cpp:156] Memory required for data: 1769406720
I0819 17:52:38.548295 16390 layer_factory.hpp:77] Creating layer relu4_3
I0819 17:52:38.548305 16390 net.cpp:91] Creating Layer relu4_3
I0819 17:52:38.548312 16390 net.cpp:425] relu4_3 <- conv4_3
I0819 17:52:38.548319 16390 net.cpp:386] relu4_3 -> conv4_3 (in-place)
I0819 17:52:38.548477 16390 net.cpp:141] Setting up relu4_3
I0819 17:52:38.548491 16390 net.cpp:148] Top shape: 16 512 28 28 (6422528)
I0819 17:52:38.548496 16390 net.cpp:156] Memory required for data: 1795096832
I0819 17:52:38.548501 16390 layer_factory.hpp:77] Creating layer pool4
I0819 17:52:38.548528 16390 net.cpp:91] Creating Layer pool4
I0819 17:52:38.548535 16390 net.cpp:425] pool4 <- conv4_3
I0819 17:52:38.548544 16390 net.cpp:399] pool4 -> pool4
I0819 17:52:38.548600 16390 net.cpp:141] Setting up pool4
I0819 17:52:38.548612 16390 net.cpp:148] Top shape: 16 512 14 14 (1605632)
I0819 17:52:38.548617 16390 net.cpp:156] Memory required for data: 1801519360
I0819 17:52:38.548624 16390 layer_factory.hpp:77] Creating layer conv5_1
I0819 17:52:38.548635 16390 net.cpp:91] Creating Layer conv5_1
I0819 17:52:38.548648 16390 net.cpp:425] conv5_1 <- pool4
I0819 17:52:38.548655 16390 net.cpp:399] conv5_1 -> conv5_1
I0819 17:52:38.556525 16390 net.cpp:141] Setting up conv5_1
I0819 17:52:38.556552 16390 net.cpp:148] Top shape: 16 512 14 14 (1605632)
I0819 17:52:38.556558 16390 net.cpp:156] Memory required for data: 1807941888
I0819 17:52:38.556566 16390 layer_factory.hpp:77] Creating layer relu5_1
I0819 17:52:38.556577 16390 net.cpp:91] Creating Layer relu5_1
I0819 17:52:38.556583 16390 net.cpp:425] relu5_1 <- conv5_1
I0819 17:52:38.556592 16390 net.cpp:386] relu5_1 -> conv5_1 (in-place)
I0819 17:52:38.556748 16390 net.cpp:141] Setting up relu5_1
I0819 17:52:38.556761 16390 net.cpp:148] Top shape: 16 512 14 14 (1605632)
I0819 17:52:38.556767 16390 net.cpp:156] Memory required for data: 1814364416
I0819 17:52:38.556773 16390 layer_factory.hpp:77] Creating layer conv5_2
I0819 17:52:38.556783 16390 net.cpp:91] Creating Layer conv5_2
I0819 17:52:38.556790 16390 net.cpp:425] conv5_2 <- conv5_1
I0819 17:52:38.556797 16390 net.cpp:399] conv5_2 -> conv5_2
I0819 17:52:38.563264 16390 net.cpp:141] Setting up conv5_2
I0819 17:52:38.563292 16390 net.cpp:148] Top shape: 16 512 14 14 (1605632)
I0819 17:52:38.563302 16390 net.cpp:156] Memory required for data: 1820786944
I0819 17:52:38.563311 16390 layer_factory.hpp:77] Creating layer relu5_2
I0819 17:52:38.563323 16390 net.cpp:91] Creating Layer relu5_2
I0819 17:52:38.563331 16390 net.cpp:425] relu5_2 <- conv5_2
I0819 17:52:38.563339 16390 net.cpp:386] relu5_2 -> conv5_2 (in-place)
I0819 17:52:38.563496 16390 net.cpp:141] Setting up relu5_2
I0819 17:52:38.563511 16390 net.cpp:148] Top shape: 16 512 14 14 (1605632)
I0819 17:52:38.563522 16390 net.cpp:156] Memory required for data: 1827209472
I0819 17:52:38.563527 16390 layer_factory.hpp:77] Creating layer conv5_3
I0819 17:52:38.563539 16390 net.cpp:91] Creating Layer conv5_3
I0819 17:52:38.563545 16390 net.cpp:425] conv5_3 <- conv5_2
I0819 17:52:38.563552 16390 net.cpp:399] conv5_3 -> conv5_3
I0819 17:52:38.570240 16390 net.cpp:141] Setting up conv5_3
I0819 17:52:38.570268 16390 net.cpp:148] Top shape: 16 512 14 14 (1605632)
I0819 17:52:38.570274 16390 net.cpp:156] Memory required for data: 1833632000
I0819 17:52:38.570283 16390 layer_factory.hpp:77] Creating layer relu5_3
I0819 17:52:38.570293 16390 net.cpp:91] Creating Layer relu5_3
I0819 17:52:38.570300 16390 net.cpp:425] relu5_3 <- conv5_3
I0819 17:52:38.570309 16390 net.cpp:386] relu5_3 -> conv5_3 (in-place)
I0819 17:52:38.570471 16390 net.cpp:141] Setting up relu5_3
I0819 17:52:38.570484 16390 net.cpp:148] Top shape: 16 512 14 14 (1605632)
I0819 17:52:38.570490 16390 net.cpp:156] Memory required for data: 1840054528
I0819 17:52:38.570495 16390 layer_factory.hpp:77] Creating layer pool5
I0819 17:52:38.570509 16390 net.cpp:91] Creating Layer pool5
I0819 17:52:38.570523 16390 net.cpp:425] pool5 <- conv5_3
I0819 17:52:38.570530 16390 net.cpp:399] pool5 -> pool5
I0819 17:52:38.570582 16390 net.cpp:141] Setting up pool5
I0819 17:52:38.570592 16390 net.cpp:148] Top shape: 16 512 7 7 (401408)
I0819 17:52:38.570597 16390 net.cpp:156] Memory required for data: 1841660160
I0819 17:52:38.570603 16390 layer_factory.hpp:77] Creating layer fc6
I0819 17:52:38.570612 16390 net.cpp:91] Creating Layer fc6
I0819 17:52:38.570617 16390 net.cpp:425] fc6 <- pool5
I0819 17:52:38.570626 16390 net.cpp:399] fc6 -> fc6
I0819 17:52:38.826733 16390 net.cpp:141] Setting up fc6
I0819 17:52:38.826774 16390 net.cpp:148] Top shape: 16 4096 (65536)
I0819 17:52:38.826781 16390 net.cpp:156] Memory required for data: 1841922304
I0819 17:52:38.826814 16390 layer_factory.hpp:77] Creating layer relu6
I0819 17:52:38.826828 16390 net.cpp:91] Creating Layer relu6
I0819 17:52:38.826835 16390 net.cpp:425] relu6 <- fc6
I0819 17:52:38.826844 16390 net.cpp:386] relu6 -> fc6 (in-place)
I0819 17:52:38.827430 16390 net.cpp:141] Setting up relu6
I0819 17:52:38.827447 16390 net.cpp:148] Top shape: 16 4096 (65536)
I0819 17:52:38.827453 16390 net.cpp:156] Memory required for data: 1842184448
I0819 17:52:38.827460 16390 layer_factory.hpp:77] Creating layer drop6
I0819 17:52:38.827468 16390 net.cpp:91] Creating Layer drop6
I0819 17:52:38.827476 16390 net.cpp:425] drop6 <- fc6
I0819 17:52:38.827483 16390 net.cpp:386] drop6 -> fc6 (in-place)
I0819 17:52:38.827524 16390 net.cpp:141] Setting up drop6
I0819 17:52:38.827535 16390 net.cpp:148] Top shape: 16 4096 (65536)
I0819 17:52:38.827541 16390 net.cpp:156] Memory required for data: 1842446592
I0819 17:52:38.827548 16390 layer_factory.hpp:77] Creating layer fc7
I0819 17:52:38.827556 16390 net.cpp:91] Creating Layer fc7
I0819 17:52:38.827563 16390 net.cpp:425] fc7 <- fc6
I0819 17:52:38.827570 16390 net.cpp:399] fc7 -> fc7
I0819 17:52:38.869216 16390 net.cpp:141] Setting up fc7
I0819 17:52:38.869257 16390 net.cpp:148] Top shape: 16 4096 (65536)
I0819 17:52:38.869263 16390 net.cpp:156] Memory required for data: 1842708736
I0819 17:52:38.869274 16390 layer_factory.hpp:77] Creating layer relu7
I0819 17:52:38.869287 16390 net.cpp:91] Creating Layer relu7
I0819 17:52:38.869294 16390 net.cpp:425] relu7 <- fc7
I0819 17:52:38.869304 16390 net.cpp:386] relu7 -> fc7 (in-place)
I0819 17:52:38.869521 16390 net.cpp:141] Setting up relu7
I0819 17:52:38.869535 16390 net.cpp:148] Top shape: 16 4096 (65536)
I0819 17:52:38.869540 16390 net.cpp:156] Memory required for data: 1842970880
I0819 17:52:38.869546 16390 layer_factory.hpp:77] Creating layer drop7
I0819 17:52:38.869555 16390 net.cpp:91] Creating Layer drop7
I0819 17:52:38.869570 16390 net.cpp:425] drop7 <- fc7
I0819 17:52:38.869578 16390 net.cpp:386] drop7 -> fc7 (in-place)
I0819 17:52:38.869609 16390 net.cpp:141] Setting up drop7
I0819 17:52:38.869619 16390 net.cpp:148] Top shape: 16 4096 (65536)
I0819 17:52:38.869626 16390 net.cpp:156] Memory required for data: 1843233024
I0819 17:52:38.869631 16390 layer_factory.hpp:77] Creating layer fc8
I0819 17:52:38.869642 16390 net.cpp:91] Creating Layer fc8
I0819 17:52:38.869650 16390 net.cpp:425] fc8 <- fc7
I0819 17:52:38.869657 16390 net.cpp:399] fc8 -> fc8
I0819 17:52:38.879989 16390 net.cpp:141] Setting up fc8
I0819 17:52:38.880023 16390 net.cpp:148] Top shape: 16 1000 (16000)
I0819 17:52:38.880030 16390 net.cpp:156] Memory required for data: 1843297024
I0819 17:52:38.880040 16390 layer_factory.hpp:77] Creating layer fc8_fc8_0_split
I0819 17:52:38.880053 16390 net.cpp:91] Creating Layer fc8_fc8_0_split
I0819 17:52:38.880059 16390 net.cpp:425] fc8_fc8_0_split <- fc8
I0819 17:52:38.880070 16390 net.cpp:399] fc8_fc8_0_split -> fc8_fc8_0_split_0
I0819 17:52:38.880080 16390 net.cpp:399] fc8_fc8_0_split -> fc8_fc8_0_split_1
I0819 17:52:38.880089 16390 net.cpp:399] fc8_fc8_0_split -> fc8_fc8_0_split_2
I0819 17:52:38.880141 16390 net.cpp:141] Setting up fc8_fc8_0_split
I0819 17:52:38.880151 16390 net.cpp:148] Top shape: 16 1000 (16000)
I0819 17:52:38.880157 16390 net.cpp:148] Top shape: 16 1000 (16000)
I0819 17:52:38.880163 16390 net.cpp:148] Top shape: 16 1000 (16000)
I0819 17:52:38.880168 16390 net.cpp:156] Memory required for data: 1843489024
I0819 17:52:38.880173 16390 layer_factory.hpp:77] Creating layer loss
I0819 17:52:38.880180 16390 net.cpp:91] Creating Layer loss
I0819 17:52:38.880187 16390 net.cpp:425] loss <- fc8_fc8_0_split_0
I0819 17:52:38.880192 16390 net.cpp:425] loss <- label_data_1_split_0
I0819 17:52:38.880199 16390 net.cpp:399] loss -> loss/loss
…
