…
I0817 13:29:58.773746  2280 upgrade_proto.cpp:66] Attempting to upgrade input file specified using deprecated input fields: nets/vgg16_deploy.prototxt
I0817 13:29:58.773759  2280 upgrade_proto.cpp:69] Successfully upgraded file specified using deprecated input fields.
W0817 13:29:58.773766  2280 upgrade_proto.cpp:71] Note that future Caffe releases will only support input layers and not input fields.
I0817 13:29:58.774013  2280 net.cpp:49] Initializing net from parameters: 
name: "VGG_ILSVRC_16_layers"
state {
  phase: TRAIN
}
layer {
  name: "input"
  type: "Input"
  top: "data"
  input_param {
    shape {
      dim: 16
      dim: 3
      dim: 224
      dim: 224
    }
  }
}
layer {
  name: "conv1_1"
  type: "Convolution"
  bottom: "data"
  top: "conv1_1"
  convolution_param {
    num_output: 64
    pad: 1
    kernel_size: 3
  }
}
layer {
  name: "relu1_1"
  type: "ReLU"
  bottom: "conv1_1"
  top: "conv1_1"
}
layer {
  name: "conv1_2"
  type: "Convolution"
  bottom: "conv1_1"
  top: "conv1_2"
  convolution_param {
    num_output: 64
    pad: 1
    kernel_size: 3
  }
}
layer {
  name: "relu1_2"
  type: "ReLU"
  bottom: "conv1_2"
  top: "conv1_2"
}
layer {
  name: "pool1"
  type: "Pooling"
  bottom: "conv1_2"
  top: "pool1"
  pooling_param {
    pool: MAX
    kernel_size: 2
    stride: 2
  }
}
layer {
  name: "conv2_1"
  type: "Convolution"
  bottom: "pool1"
  top: "conv2_1"
  convolution_param {
    num_output: 128
    pad: 1
    kernel_size: 3
  }
}
layer {
  name: "relu2_1"
  type: "ReLU"
  bottom: "conv2_1"
  top: "conv2_1"
}
layer {
  name: "conv2_2"
  type: "Convolution"
  bottom: "conv2_1"
  top: "conv2_2"
  convolution_param {
    num_output: 128
    pad: 1
    kernel_size: 3
  }
}
layer {
  name: "relu2_2"
  type: "ReLU"
  bottom: "conv2_2"
  top: "conv2_2"
}
layer {
  name: "pool2"
  type: "Pooling"
  bottom: "conv2_2"
  top: "pool2"
  pooling_param {
    pool: MAX
    kernel_size: 2
    stride: 2
  }
}
layer {
  name: "conv3_1"
  type: "Convolution"
  bottom: "pool2"
  top: "conv3_1"
  convolution_param {
    num_output: 256
    pad: 1
    kernel_size: 3
  }
}
layer {
  name: "relu3_1"
  type: "ReLU"
  bottom: "conv3_1"
  top: "conv3_1"
}
layer {
  name: "conv3_2"
  type: "Convolution"
  bottom: "conv3_1"
  top: "conv3_2"
  convolution_param {
    num_output: 256
    pad: 1
    kernel_size: 3
  }
}
layer {
  name: "relu3_2"
  type: "ReLU"
  bottom: "conv3_2"
  top: "conv3_2"
}
layer {
  name: "conv3_3"
  type: "Convolution"
  bottom: "conv3_2"
  top: "conv3_3"
  convolution_param {
    num_output: 256
    pad: 1
    kernel_size: 3
  }
}
layer {
  name: "relu3_3"
  type: "ReLU"
  bottom: "conv3_3"
  top: "conv3_3"
}
layer {
  name: "pool3"
  type: "Pooling"
  bottom: "conv3_3"
  top: "pool3"
  pooling_param {
    pool: MAX
    kernel_size: 2
    stride: 2
  }
}
layer {
  name: "conv4_1"
  type: "Convolution"
  bottom: "pool3"
  top: "conv4_1"
  convolution_param {
    num_output: 512
    pad: 1
    kernel_size: 3
  }
}
layer {
  name: "relu4_1"
  type: "ReLU"
  bottom: "conv4_1"
  top: "conv4_1"
}
layer {
  name: "conv4_2"
  type: "Convolution"
  bottom: "conv4_1"
  top: "conv4_2"
  convolution_param {
    num_output: 512
    pad: 1
    kernel_size: 3
  }
}
layer {
  name: "relu4_2"
  type: "ReLU"
  bottom: "conv4_2"
  top: "conv4_2"
}
layer {
  name: "conv4_3"
  type: "Convolution"
  bottom: "conv4_2"
  top: "conv4_3"
  convolution_param {
    num_output: 512
    pad: 1
    kernel_size: 3
  }
}
layer {
  name: "relu4_3"
  type: "ReLU"
  bottom: "conv4_3"
  top: "conv4_3"
}
layer {
  name: "pool4"
  type: "Pooling"
  bottom: "conv4_3"
  top: "pool4"
  pooling_param {
    pool: MAX
    kernel_size: 2
    stride: 2
  }
}
layer {
  name: "conv5_1"
  type: "Convolution"
  bottom: "pool4"
  top: "conv5_1"
  convolution_param {
    num_output: 512
    pad: 1
    kernel_size: 3
  }
}
layer {
  name: "relu5_1"
  type: "ReLU"
  bottom: "conv5_1"
  top: "conv5_1"
}
layer {
  name: "conv5_2"
  type: "Convolution"
  bottom: "conv5_1"
  top: "conv5_2"
  convolution_param {
    num_output: 512
    pad: 1
    kernel_size: 3
  }
}
layer {
  name: "relu5_2"
  type: "ReLU"
  bottom: "conv5_2"
  top: "conv5_2"
}
layer {
  name: "conv5_3"
  type: "Convolution"
  bottom: "conv5_2"
  top: "conv5_3"
  convolution_param {
    num_output: 512
    pad: 1
    kernel_size: 3
  }
}
layer {
  name: "relu5_3"
  type: "ReLU"
  bottom: "conv5_3"
  top: "conv5_3"
}
layer {
  name: "pool5"
  type: "Pooling"
  bottom: "conv5_3"
  top: "pool5"
  pooling_param {
    pool: MAX
    kernel_size: 2
    stride: 2
  }
}
layer {
  name: "fc6"
  type: "InnerProduct"
  bottom: "pool5"
  top: "fc6"
  inner_product_param {
    num_output: 4096
  }
}
layer {
  name: "relu6"
  type: "ReLU"
  bottom: "fc6"
  top: "fc6"
}
layer {
  name: "drop6"
  type: "Dropout"
  bottom: "fc6"
  top: "fc6"
  dropout_param {
    dropout_ratio: 0.5
  }
}
layer {
  name: "fc7"
  type: "InnerProduct"
  bottom: "fc6"
  top: "fc7"
  inner_product_param {
    num_output: 4096
  }
}
layer {
  name: "relu7"
  type: "ReLU"
  bottom: "fc7"
  top: "fc7"
}
layer {
  name: "drop7"
  type: "Dropout"
  bottom: "fc7"
  top: "fc7"
  dropout_param {
    dropout_ratio: 0.5
  }
}
layer {
  name: "fc8"
  type: "InnerProduct"
  bottom: "fc7"
  top: "fc8"
  inner_product_param {
    num_output: 1000
  }
}
layer {
  name: "prob"
  type: "Softmax"
  bottom: "fc8"
  top: "prob"
}
I0817 13:29:58.774935  2280 layer_factory.hpp:77] Creating layer input
I0817 13:29:58.774957  2280 net.cpp:91] Creating Layer input
I0817 13:29:58.774966  2280 net.cpp:399] input -> data
I0817 13:29:58.782088  2280 net.cpp:141] Setting up input
I0817 13:29:58.782114  2280 net.cpp:148] Top shape: 16 3 224 224 (2408448)
I0817 13:29:58.782120  2280 net.cpp:156] Memory required for data: 9633792
I0817 13:29:58.782130  2280 layer_factory.hpp:77] Creating layer conv1_1
I0817 13:29:58.782142  2280 net.cpp:91] Creating Layer conv1_1
I0817 13:29:58.782150  2280 net.cpp:425] conv1_1 <- data
I0817 13:29:58.782160  2280 net.cpp:399] conv1_1 -> conv1_1
I0817 13:29:58.951678  2280 net.cpp:141] Setting up conv1_1
I0817 13:29:58.951714  2280 net.cpp:148] Top shape: 16 64 224 224 (51380224)
I0817 13:29:58.951719  2280 net.cpp:156] Memory required for data: 215154688
I0817 13:29:58.951740  2280 layer_factory.hpp:77] Creating layer relu1_1
I0817 13:29:58.951755  2280 net.cpp:91] Creating Layer relu1_1
I0817 13:29:58.951761  2280 net.cpp:425] relu1_1 <- conv1_1
I0817 13:29:58.951768  2280 net.cpp:386] relu1_1 -> conv1_1 (in-place)
I0817 13:29:58.951913  2280 net.cpp:141] Setting up relu1_1
I0817 13:29:58.951926  2280 net.cpp:148] Top shape: 16 64 224 224 (51380224)
I0817 13:29:58.951931  2280 net.cpp:156] Memory required for data: 420675584
I0817 13:29:58.951938  2280 layer_factory.hpp:77] Creating layer conv1_2
I0817 13:29:58.951948  2280 net.cpp:91] Creating Layer conv1_2
I0817 13:29:58.951961  2280 net.cpp:425] conv1_2 <- conv1_1
I0817 13:29:58.951967  2280 net.cpp:399] conv1_2 -> conv1_2
I0817 13:29:58.952767  2280 net.cpp:141] Setting up conv1_2
I0817 13:29:58.952785  2280 net.cpp:148] Top shape: 16 64 224 224 (51380224)
I0817 13:29:58.952791  2280 net.cpp:156] Memory required for data: 626196480
I0817 13:29:58.952801  2280 layer_factory.hpp:77] Creating layer relu1_2
I0817 13:29:58.952811  2280 net.cpp:91] Creating Layer relu1_2
I0817 13:29:58.952816  2280 net.cpp:425] relu1_2 <- conv1_2
I0817 13:29:58.952822  2280 net.cpp:386] relu1_2 -> conv1_2 (in-place)
I0817 13:29:58.952950  2280 net.cpp:141] Setting up relu1_2
I0817 13:29:58.952962  2280 net.cpp:148] Top shape: 16 64 224 224 (51380224)
I0817 13:29:58.952967  2280 net.cpp:156] Memory required for data: 831717376
I0817 13:29:58.952975  2280 layer_factory.hpp:77] Creating layer pool1
I0817 13:29:58.952983  2280 net.cpp:91] Creating Layer pool1
I0817 13:29:58.952988  2280 net.cpp:425] pool1 <- conv1_2
I0817 13:29:58.952996  2280 net.cpp:399] pool1 -> pool1
I0817 13:29:58.953055  2280 net.cpp:141] Setting up pool1
I0817 13:29:58.953066  2280 net.cpp:148] Top shape: 16 64 112 112 (12845056)
I0817 13:29:58.953071  2280 net.cpp:156] Memory required for data: 883097600
I0817 13:29:58.953076  2280 layer_factory.hpp:77] Creating layer conv2_1
I0817 13:29:58.953085  2280 net.cpp:91] Creating Layer conv2_1
I0817 13:29:58.953091  2280 net.cpp:425] conv2_1 <- pool1
I0817 13:29:58.953097  2280 net.cpp:399] conv2_1 -> conv2_1
I0817 13:29:58.956089  2280 net.cpp:141] Setting up conv2_1
I0817 13:29:58.956109  2280 net.cpp:148] Top shape: 16 128 112 112 (25690112)
I0817 13:29:58.956115  2280 net.cpp:156] Memory required for data: 985858048
I0817 13:29:58.956125  2280 layer_factory.hpp:77] Creating layer relu2_1
I0817 13:29:58.956133  2280 net.cpp:91] Creating Layer relu2_1
I0817 13:29:58.956140  2280 net.cpp:425] relu2_1 <- conv2_1
I0817 13:29:58.956146  2280 net.cpp:386] relu2_1 -> conv2_1 (in-place)
I0817 13:29:58.956476  2280 net.cpp:141] Setting up relu2_1
I0817 13:29:58.956492  2280 net.cpp:148] Top shape: 16 128 112 112 (25690112)
I0817 13:29:58.956498  2280 net.cpp:156] Memory required for data: 1088618496
I0817 13:29:58.956504  2280 layer_factory.hpp:77] Creating layer conv2_2
I0817 13:29:58.956514  2280 net.cpp:91] Creating Layer conv2_2
I0817 13:29:58.956521  2280 net.cpp:425] conv2_2 <- conv2_1
I0817 13:29:58.956527  2280 net.cpp:399] conv2_2 -> conv2_2
I0817 13:29:58.957558  2280 net.cpp:141] Setting up conv2_2
I0817 13:29:58.957576  2280 net.cpp:148] Top shape: 16 128 112 112 (25690112)
I0817 13:29:58.957582  2280 net.cpp:156] Memory required for data: 1191378944
I0817 13:29:58.957590  2280 layer_factory.hpp:77] Creating layer relu2_2
I0817 13:29:58.957598  2280 net.cpp:91] Creating Layer relu2_2
I0817 13:29:58.957604  2280 net.cpp:425] relu2_2 <- conv2_2
I0817 13:29:58.957612  2280 net.cpp:386] relu2_2 -> conv2_2 (in-place)
I0817 13:29:58.957749  2280 net.cpp:141] Setting up relu2_2
I0817 13:29:58.957762  2280 net.cpp:148] Top shape: 16 128 112 112 (25690112)
I0817 13:29:58.957767  2280 net.cpp:156] Memory required for data: 1294139392
I0817 13:29:58.957772  2280 layer_factory.hpp:77] Creating layer pool2
I0817 13:29:58.957780  2280 net.cpp:91] Creating Layer pool2
I0817 13:29:58.957787  2280 net.cpp:425] pool2 <- conv2_2
I0817 13:29:58.957793  2280 net.cpp:399] pool2 -> pool2
I0817 13:29:58.957829  2280 net.cpp:141] Setting up pool2
I0817 13:29:58.957839  2280 net.cpp:148] Top shape: 16 128 56 56 (6422528)
I0817 13:29:58.957844  2280 net.cpp:156] Memory required for data: 1319829504
I0817 13:29:58.957849  2280 layer_factory.hpp:77] Creating layer conv3_1
I0817 13:29:58.957859  2280 net.cpp:91] Creating Layer conv3_1
I0817 13:29:58.957864  2280 net.cpp:425] conv3_1 <- pool2
I0817 13:29:58.957870  2280 net.cpp:399] conv3_1 -> conv3_1
I0817 13:29:58.958982  2280 net.cpp:141] Setting up conv3_1
I0817 13:29:58.959000  2280 net.cpp:148] Top shape: 16 256 56 56 (12845056)
I0817 13:29:58.959007  2280 net.cpp:156] Memory required for data: 1371209728
I0817 13:29:58.959017  2280 layer_factory.hpp:77] Creating layer relu3_1
I0817 13:29:58.959025  2280 net.cpp:91] Creating Layer relu3_1
I0817 13:29:58.959031  2280 net.cpp:425] relu3_1 <- conv3_1
I0817 13:29:58.959038  2280 net.cpp:386] relu3_1 -> conv3_1 (in-place)
I0817 13:29:58.959184  2280 net.cpp:141] Setting up relu3_1
I0817 13:29:58.959197  2280 net.cpp:148] Top shape: 16 256 56 56 (12845056)
I0817 13:29:58.959203  2280 net.cpp:156] Memory required for data: 1422589952
I0817 13:29:58.959208  2280 layer_factory.hpp:77] Creating layer conv3_2
I0817 13:29:58.959218  2280 net.cpp:91] Creating Layer conv3_2
I0817 13:29:58.959223  2280 net.cpp:425] conv3_2 <- conv3_1
I0817 13:29:58.959231  2280 net.cpp:399] conv3_2 -> conv3_2
I0817 13:29:58.961738  2280 net.cpp:141] Setting up conv3_2
I0817 13:29:58.961756  2280 net.cpp:148] Top shape: 16 256 56 56 (12845056)
I0817 13:29:58.961763  2280 net.cpp:156] Memory required for data: 1473970176
I0817 13:29:58.961771  2280 layer_factory.hpp:77] Creating layer relu3_2
I0817 13:29:58.961779  2280 net.cpp:91] Creating Layer relu3_2
I0817 13:29:58.961796  2280 net.cpp:425] relu3_2 <- conv3_2
I0817 13:29:58.961807  2280 net.cpp:386] relu3_2 -> conv3_2 (in-place)
I0817 13:29:58.961952  2280 net.cpp:141] Setting up relu3_2
I0817 13:29:58.961966  2280 net.cpp:148] Top shape: 16 256 56 56 (12845056)
I0817 13:29:58.961972  2280 net.cpp:156] Memory required for data: 1525350400
I0817 13:29:58.961977  2280 layer_factory.hpp:77] Creating layer conv3_3
I0817 13:29:58.961987  2280 net.cpp:91] Creating Layer conv3_3
I0817 13:29:58.961992  2280 net.cpp:425] conv3_3 <- conv3_2
I0817 13:29:58.962000  2280 net.cpp:399] conv3_3 -> conv3_3
I0817 13:29:58.964524  2280 net.cpp:141] Setting up conv3_3
I0817 13:29:58.964541  2280 net.cpp:148] Top shape: 16 256 56 56 (12845056)
I0817 13:29:58.964547  2280 net.cpp:156] Memory required for data: 1576730624
I0817 13:29:58.964556  2280 layer_factory.hpp:77] Creating layer relu3_3
I0817 13:29:58.964566  2280 net.cpp:91] Creating Layer relu3_3
I0817 13:29:58.964571  2280 net.cpp:425] relu3_3 <- conv3_3
I0817 13:29:58.964579  2280 net.cpp:386] relu3_3 -> conv3_3 (in-place)
I0817 13:29:58.964722  2280 net.cpp:141] Setting up relu3_3
I0817 13:29:58.964735  2280 net.cpp:148] Top shape: 16 256 56 56 (12845056)
I0817 13:29:58.964740  2280 net.cpp:156] Memory required for data: 1628110848
I0817 13:29:58.964746  2280 layer_factory.hpp:77] Creating layer pool3
I0817 13:29:58.964754  2280 net.cpp:91] Creating Layer pool3
I0817 13:29:58.964761  2280 net.cpp:425] pool3 <- conv3_3
I0817 13:29:58.964767  2280 net.cpp:399] pool3 -> pool3
I0817 13:29:58.964807  2280 net.cpp:141] Setting up pool3
I0817 13:29:58.964817  2280 net.cpp:148] Top shape: 16 256 28 28 (3211264)
I0817 13:29:58.964821  2280 net.cpp:156] Memory required for data: 1640955904
I0817 13:29:58.964828  2280 layer_factory.hpp:77] Creating layer conv4_1
I0817 13:29:58.964836  2280 net.cpp:91] Creating Layer conv4_1
I0817 13:29:58.964843  2280 net.cpp:425] conv4_1 <- pool3
I0817 13:29:58.964849  2280 net.cpp:399] conv4_1 -> conv4_1
I0817 13:29:58.969707  2280 net.cpp:141] Setting up conv4_1
I0817 13:29:58.969727  2280 net.cpp:148] Top shape: 16 512 28 28 (6422528)
I0817 13:29:58.969733  2280 net.cpp:156] Memory required for data: 1666646016
I0817 13:29:58.969743  2280 layer_factory.hpp:77] Creating layer relu4_1
I0817 13:29:58.969750  2280 net.cpp:91] Creating Layer relu4_1
I0817 13:29:58.969755  2280 net.cpp:425] relu4_1 <- conv4_1
I0817 13:29:58.969763  2280 net.cpp:386] relu4_1 -> conv4_1 (in-place)
I0817 13:29:58.969915  2280 net.cpp:141] Setting up relu4_1
I0817 13:29:58.969928  2280 net.cpp:148] Top shape: 16 512 28 28 (6422528)
I0817 13:29:58.969933  2280 net.cpp:156] Memory required for data: 1692336128
I0817 13:29:58.969939  2280 layer_factory.hpp:77] Creating layer conv4_2
I0817 13:29:58.969949  2280 net.cpp:91] Creating Layer conv4_2
I0817 13:29:58.969961  2280 net.cpp:425] conv4_2 <- conv4_1
I0817 13:29:58.969969  2280 net.cpp:399] conv4_2 -> conv4_2
I0817 13:29:58.976126  2280 net.cpp:141] Setting up conv4_2
I0817 13:29:58.976147  2280 net.cpp:148] Top shape: 16 512 28 28 (6422528)
I0817 13:29:58.976153  2280 net.cpp:156] Memory required for data: 1718026240
I0817 13:29:58.976166  2280 layer_factory.hpp:77] Creating layer relu4_2
I0817 13:29:58.976176  2280 net.cpp:91] Creating Layer relu4_2
I0817 13:29:58.976181  2280 net.cpp:425] relu4_2 <- conv4_2
I0817 13:29:58.976188  2280 net.cpp:386] relu4_2 -> conv4_2 (in-place)
I0817 13:29:58.976546  2280 net.cpp:141] Setting up relu4_2
I0817 13:29:58.976562  2280 net.cpp:148] Top shape: 16 512 28 28 (6422528)
I0817 13:29:58.976567  2280 net.cpp:156] Memory required for data: 1743716352
I0817 13:29:58.976573  2280 layer_factory.hpp:77] Creating layer conv4_3
I0817 13:29:58.976583  2280 net.cpp:91] Creating Layer conv4_3
I0817 13:29:58.976589  2280 net.cpp:425] conv4_3 <- conv4_2
I0817 13:29:58.976596  2280 net.cpp:399] conv4_3 -> conv4_3
I0817 13:29:58.982676  2280 net.cpp:141] Setting up conv4_3
I0817 13:29:58.982698  2280 net.cpp:148] Top shape: 16 512 28 28 (6422528)
I0817 13:29:58.982705  2280 net.cpp:156] Memory required for data: 1769406464
I0817 13:29:58.982733  2280 layer_factory.hpp:77] Creating layer relu4_3
I0817 13:29:58.982743  2280 net.cpp:91] Creating Layer relu4_3
I0817 13:29:58.982750  2280 net.cpp:425] relu4_3 <- conv4_3
I0817 13:29:58.982756  2280 net.cpp:386] relu4_3 -> conv4_3 (in-place)
I0817 13:29:58.982904  2280 net.cpp:141] Setting up relu4_3
I0817 13:29:58.982916  2280 net.cpp:148] Top shape: 16 512 28 28 (6422528)
I0817 13:29:58.982923  2280 net.cpp:156] Memory required for data: 1795096576
I0817 13:29:58.982928  2280 layer_factory.hpp:77] Creating layer pool4
I0817 13:29:58.982938  2280 net.cpp:91] Creating Layer pool4
I0817 13:29:58.982942  2280 net.cpp:425] pool4 <- conv4_3
I0817 13:29:58.982950  2280 net.cpp:399] pool4 -> pool4
I0817 13:29:58.982990  2280 net.cpp:141] Setting up pool4
I0817 13:29:58.983000  2280 net.cpp:148] Top shape: 16 512 14 14 (1605632)
I0817 13:29:58.983005  2280 net.cpp:156] Memory required for data: 1801519104
I0817 13:29:58.983011  2280 layer_factory.hpp:77] Creating layer conv5_1
I0817 13:29:58.983021  2280 net.cpp:91] Creating Layer conv5_1
I0817 13:29:58.983026  2280 net.cpp:425] conv5_1 <- pool4
I0817 13:29:58.983033  2280 net.cpp:399] conv5_1 -> conv5_1
I0817 13:29:58.989392  2280 net.cpp:141] Setting up conv5_1
I0817 13:29:58.989413  2280 net.cpp:148] Top shape: 16 512 14 14 (1605632)
I0817 13:29:58.989419  2280 net.cpp:156] Memory required for data: 1807941632
I0817 13:29:58.989429  2280 layer_factory.hpp:77] Creating layer relu5_1
I0817 13:29:58.989439  2280 net.cpp:91] Creating Layer relu5_1
I0817 13:29:58.989444  2280 net.cpp:425] relu5_1 <- conv5_1
I0817 13:29:58.989452  2280 net.cpp:386] relu5_1 -> conv5_1 (in-place)
I0817 13:29:58.989603  2280 net.cpp:141] Setting up relu5_1
I0817 13:29:58.989617  2280 net.cpp:148] Top shape: 16 512 14 14 (1605632)
I0817 13:29:58.989622  2280 net.cpp:156] Memory required for data: 1814364160
I0817 13:29:58.989629  2280 layer_factory.hpp:77] Creating layer conv5_2
I0817 13:29:58.989639  2280 net.cpp:91] Creating Layer conv5_2
I0817 13:29:58.989645  2280 net.cpp:425] conv5_2 <- conv5_1
I0817 13:29:58.989652  2280 net.cpp:399] conv5_2 -> conv5_2
I0817 13:29:58.995805  2280 net.cpp:141] Setting up conv5_2
I0817 13:29:58.995826  2280 net.cpp:148] Top shape: 16 512 14 14 (1605632)
I0817 13:29:58.995831  2280 net.cpp:156] Memory required for data: 1820786688
I0817 13:29:58.995841  2280 layer_factory.hpp:77] Creating layer relu5_2
I0817 13:29:58.995849  2280 net.cpp:91] Creating Layer relu5_2
I0817 13:29:58.995856  2280 net.cpp:425] relu5_2 <- conv5_2
I0817 13:29:58.995862  2280 net.cpp:386] relu5_2 -> conv5_2 (in-place)
I0817 13:29:58.996003  2280 net.cpp:141] Setting up relu5_2
I0817 13:29:58.996016  2280 net.cpp:148] Top shape: 16 512 14 14 (1605632)
I0817 13:29:58.996021  2280 net.cpp:156] Memory required for data: 1827209216
I0817 13:29:58.996027  2280 layer_factory.hpp:77] Creating layer conv5_3
I0817 13:29:58.996037  2280 net.cpp:91] Creating Layer conv5_3
I0817 13:29:58.996050  2280 net.cpp:425] conv5_3 <- conv5_2
I0817 13:29:58.996057  2280 net.cpp:399] conv5_3 -> conv5_3
I0817 13:29:59.002048  2280 net.cpp:141] Setting up conv5_3
I0817 13:29:59.002066  2280 net.cpp:148] Top shape: 16 512 14 14 (1605632)
I0817 13:29:59.002073  2280 net.cpp:156] Memory required for data: 1833631744
I0817 13:29:59.002081  2280 layer_factory.hpp:77] Creating layer relu5_3
I0817 13:29:59.002090  2280 net.cpp:91] Creating Layer relu5_3
I0817 13:29:59.002096  2280 net.cpp:425] relu5_3 <- conv5_3
I0817 13:29:59.002104  2280 net.cpp:386] relu5_3 -> conv5_3 (in-place)
I0817 13:29:59.002249  2280 net.cpp:141] Setting up relu5_3
I0817 13:29:59.002260  2280 net.cpp:148] Top shape: 16 512 14 14 (1605632)
I0817 13:29:59.002266  2280 net.cpp:156] Memory required for data: 1840054272
I0817 13:29:59.002271  2280 layer_factory.hpp:77] Creating layer pool5
I0817 13:29:59.002280  2280 net.cpp:91] Creating Layer pool5
I0817 13:29:59.002286  2280 net.cpp:425] pool5 <- conv5_3
I0817 13:29:59.002295  2280 net.cpp:399] pool5 -> pool5
I0817 13:29:59.002358  2280 net.cpp:141] Setting up pool5
I0817 13:29:59.002369  2280 net.cpp:148] Top shape: 16 512 7 7 (401408)
I0817 13:29:59.002374  2280 net.cpp:156] Memory required for data: 1841659904
I0817 13:29:59.002380  2280 layer_factory.hpp:77] Creating layer fc6
I0817 13:29:59.002396  2280 net.cpp:91] Creating Layer fc6
I0817 13:29:59.002405  2280 net.cpp:425] fc6 <- pool5
I0817 13:29:59.002413  2280 net.cpp:399] fc6 -> fc6
I0817 13:29:59.254708  2280 net.cpp:141] Setting up fc6
I0817 13:29:59.254745  2280 net.cpp:148] Top shape: 16 4096 (65536)
I0817 13:29:59.254750  2280 net.cpp:156] Memory required for data: 1841922048
I0817 13:29:59.254762  2280 layer_factory.hpp:77] Creating layer relu6
I0817 13:29:59.254775  2280 net.cpp:91] Creating Layer relu6
I0817 13:29:59.254781  2280 net.cpp:425] relu6 <- fc6
I0817 13:29:59.254789  2280 net.cpp:386] relu6 -> fc6 (in-place)
I0817 13:29:59.255317  2280 net.cpp:141] Setting up relu6
I0817 13:29:59.255333  2280 net.cpp:148] Top shape: 16 4096 (65536)
I0817 13:29:59.255339  2280 net.cpp:156] Memory required for data: 1842184192
I0817 13:29:59.255344  2280 layer_factory.hpp:77] Creating layer drop6
I0817 13:29:59.255354  2280 net.cpp:91] Creating Layer drop6
I0817 13:29:59.255362  2280 net.cpp:425] drop6 <- fc6
I0817 13:29:59.255368  2280 net.cpp:386] drop6 -> fc6 (in-place)
I0817 13:29:59.255398  2280 net.cpp:141] Setting up drop6
I0817 13:29:59.255405  2280 net.cpp:148] Top shape: 16 4096 (65536)
I0817 13:29:59.255411  2280 net.cpp:156] Memory required for data: 1842446336
I0817 13:29:59.255416  2280 layer_factory.hpp:77] Creating layer fc7
I0817 13:29:59.255427  2280 net.cpp:91] Creating Layer fc7
I0817 13:29:59.255434  2280 net.cpp:425] fc7 <- fc6
I0817 13:29:59.255440  2280 net.cpp:399] fc7 -> fc7
I0817 13:29:59.296762  2280 net.cpp:141] Setting up fc7
I0817 13:29:59.296803  2280 net.cpp:148] Top shape: 16 4096 (65536)
I0817 13:29:59.296809  2280 net.cpp:156] Memory required for data: 1842708480
I0817 13:29:59.296821  2280 layer_factory.hpp:77] Creating layer relu7
I0817 13:29:59.296833  2280 net.cpp:91] Creating Layer relu7
I0817 13:29:59.296839  2280 net.cpp:425] relu7 <- fc7
I0817 13:29:59.296849  2280 net.cpp:386] relu7 -> fc7 (in-place)
I0817 13:29:59.297050  2280 net.cpp:141] Setting up relu7
I0817 13:29:59.297065  2280 net.cpp:148] Top shape: 16 4096 (65536)
I0817 13:29:59.297070  2280 net.cpp:156] Memory required for data: 1842970624
I0817 13:29:59.297075  2280 layer_factory.hpp:77] Creating layer drop7
I0817 13:29:59.297085  2280 net.cpp:91] Creating Layer drop7
I0817 13:29:59.297091  2280 net.cpp:425] drop7 <- fc7
I0817 13:29:59.297096  2280 net.cpp:386] drop7 -> fc7 (in-place)
I0817 13:29:59.297124  2280 net.cpp:141] Setting up drop7
I0817 13:29:59.297134  2280 net.cpp:148] Top shape: 16 4096 (65536)
I0817 13:29:59.297139  2280 net.cpp:156] Memory required for data: 1843232768
I0817 13:29:59.297145  2280 layer_factory.hpp:77] Creating layer fc8
I0817 13:29:59.297154  2280 net.cpp:91] Creating Layer fc8
I0817 13:29:59.297160  2280 net.cpp:425] fc8 <- fc7
I0817 13:29:59.297166  2280 net.cpp:399] fc8 -> fc8
I0817 13:29:59.307523  2280 net.cpp:141] Setting up fc8
I0817 13:29:59.307554  2280 net.cpp:148] Top shape: 16 1000 (16000)
I0817 13:29:59.307560  2280 net.cpp:156] Memory required for data: 1843296768
I0817 13:29:59.307572  2280 layer_factory.hpp:77] Creating layer prob
I0817 13:29:59.307587  2280 net.cpp:91] Creating Layer prob
I0817 13:29:59.307595  2280 net.cpp:425] prob <- fc8
I0817 13:29:59.307602  2280 net.cpp:399] prob -> prob
I0817 13:29:59.307865  2280 net.cpp:141] Setting up prob
I0817 13:29:59.307878  2280 net.cpp:148] Top shape: 16 1000 (16000)
I0817 13:29:59.307884  2280 net.cpp:156] Memory required for data: 1843360768
I0817 13:29:59.307889  2280 net.cpp:219] prob does not need backward computation.
I0817 13:29:59.307895  2280 net.cpp:219] fc8 does not need backward computation.
I0817 13:29:59.307900  2280 net.cpp:219] drop7 does not need backward computation.
I0817 13:29:59.307905  2280 net.cpp:219] relu7 does not need backward computation.
…
