…
I0122 23:50:18.060582 18161 net.cpp:322] The NetState phase (0) differed from the phase (1) specified by a rule in layer accuracy/top1
I0122 23:50:18.060586 18161 net.cpp:322] The NetState phase (0) differed from the phase (1) specified by a rule in layer accuracy/top5
I0122 23:50:18.060770 18161 net.cpp:58] Initializing net from parameters: 
name: "VGG_ILSVRC_16_layers"
state {
  phase: TRAIN
  level: 0
  stage: ""
}
layer {
  name: "data"
  type: "ImageData"
  top: "data"
  top: "label"
  include {
    phase: TRAIN
  }
  transform_param {
    crop_size: 224
  }
  image_data_param {
    source: "images/list.txt"
    batch_size: 16
  }
}
layer {
  name: "conv1_1"
  type: "Convolution"
  bottom: "data"
  top: "conv1_1"
  param {
    lr_mult: 0.001
  }
  param {
    lr_mult: 0.001
  }
  convolution_param {
    num_output: 64
    pad: 1
    kernel_size: 3
  }
}
layer {
  name: "relu1_1"
  type: "ReLU"
  bottom: "conv1_1"
  top: "conv1_1"
}
layer {
  name: "conv1_2"
  type: "Convolution"
  bottom: "conv1_1"
  top: "conv1_2"
  param {
    lr_mult: 0.001
  }
  param {
    lr_mult: 0.001
  }
  convolution_param {
    num_output: 64
    pad: 1
    kernel_size: 3
  }
}
layer {
  name: "relu1_2"
  type: "ReLU"
  bottom: "conv1_2"
  top: "conv1_2"
}
layer {
  name: "pool1"
  type: "Pooling"
  bottom: "conv1_2"
  top: "pool1"
  pooling_param {
    pool: MAX
    kernel_size: 2
    stride: 2
  }
}
layer {
  name: "conv2_1"
  type: "Convolution"
  bottom: "pool1"
  top: "conv2_1"
  param {
    lr_mult: 0.001
  }
  param {
    lr_mult: 0.001
  }
  convolution_param {
    num_output: 128
    pad: 1
    kernel_size: 3
  }
}
layer {
  name: "relu2_1"
  type: "ReLU"
  bottom: "conv2_1"
  top: "conv2_1"
}
layer {
  name: "conv2_2"
  type: "Convolution"
  bottom: "conv2_1"
  top: "conv2_2"
  param {
    lr_mult: 0.001
  }
  param {
    lr_mult: 0.001
  }
  convolution_param {
    num_output: 128
    pad: 1
    kernel_size: 3
  }
}
layer {
  name: "relu2_2"
  type: "ReLU"
  bottom: "conv2_2"
  top: "conv2_2"
}
layer {
  name: "pool2"
  type: "Pooling"
  bottom: "conv2_2"
  top: "pool2"
  pooling_param {
    pool: MAX
    kernel_size: 2
    stride: 2
  }
}
layer {
  name: "conv3_1"
  type: "Convolution"
  bottom: "pool2"
  top: "conv3_1"
  param {
    lr_mult: 0.001
  }
  param {
    lr_mult: 0.001
  }
  convolution_param {
    num_output: 256
    pad: 1
    kernel_size: 3
  }
}
layer {
  name: "relu3_1"
  type: "ReLU"
  bottom: "conv3_1"
  top: "conv3_1"
}
layer {
  name: "conv3_2"
  type: "Convolution"
  bottom: "conv3_1"
  top: "conv3_2"
  param {
    lr_mult: 0.001
  }
  param {
    lr_mult: 0.001
  }
  convolution_param {
    num_output: 256
    pad: 1
    kernel_size: 3
  }
}
layer {
  name: "relu3_2"
  type: "ReLU"
  bottom: "conv3_2"
  top: "conv3_2"
}
layer {
  name: "conv3_3"
  type: "Convolution"
  bottom: "conv3_2"
  top: "conv3_3"
  param {
    lr_mult: 0.001
  }
  param {
    lr_mult: 0.001
  }
  convolution_param {
    num_output: 256
    pad: 1
    kernel_size: 3
  }
}
layer {
  name: "relu3_3"
  type: "ReLU"
  bottom: "conv3_3"
  top: "conv3_3"
}
layer {
  name: "pool3"
  type: "Pooling"
  bottom: "conv3_3"
  top: "pool3"
  pooling_param {
    pool: MAX
    kernel_size: 2
    stride: 2
  }
}
layer {
  name: "conv4_1"
  type: "Convolution"
  bottom: "pool3"
  top: "conv4_1"
  param {
    lr_mult: 0.001
  }
  param {
    lr_mult: 0.001
  }
  convolution_param {
    num_output: 512
    pad: 1
    kernel_size: 3
  }
}
layer {
  name: "relu4_1"
  type: "ReLU"
  bottom: "conv4_1"
  top: "conv4_1"
}
layer {
  name: "conv4_2"
  type: "Convolution"
  bottom: "conv4_1"
  top: "conv4_2"
  param {
    lr_mult: 0.001
  }
  param {
    lr_mult: 0.001
  }
  convolution_param {
    num_output: 512
    pad: 1
    kernel_size: 3
  }
}
layer {
  name: "relu4_2"
  type: "ReLU"
  bottom: "conv4_2"
  top: "conv4_2"
}
layer {
  name: "conv4_3"
  type: "Convolution"
  bottom: "conv4_2"
  top: "conv4_3"
  param {
    lr_mult: 0.001
  }
  param {
    lr_mult: 0.001
  }
  convolution_param {
    num_output: 512
    pad: 1
    kernel_size: 3
  }
}
layer {
  name: "relu4_3"
  type: "ReLU"
  bottom: "conv4_3"
  top: "conv4_3"
}
layer {
  name: "pool4"
  type: "Pooling"
  bottom: "conv4_3"
  top: "pool4"
  pooling_param {
    pool: MAX
    kernel_size: 2
    stride: 2
  }
}
layer {
  name: "conv5_1"
  type: "Convolution"
  bottom: "pool4"
  top: "conv5_1"
  param {
    lr_mult: 0.001
  }
  param {
    lr_mult: 0.001
  }
  convolution_param {
    num_output: 512
    pad: 1
    kernel_size: 3
  }
}
layer {
  name: "relu5_1"
  type: "ReLU"
  bottom: "conv5_1"
  top: "conv5_1"
}
layer {
  name: "conv5_2"
  type: "Convolution"
  bottom: "conv5_1"
  top: "conv5_2"
  param {
    lr_mult: 0.001
  }
  param {
    lr_mult: 0.001
  }
  convolution_param {
    num_output: 512
    pad: 1
    kernel_size: 3
  }
}
layer {
  name: "relu5_2"
  type: "ReLU"
  bottom: "conv5_2"
  top: "conv5_2"
}
layer {
  name: "conv5_3"
  type: "Convolution"
  bottom: "conv5_2"
  top: "conv5_3"
  param {
    lr_mult: 0.001
  }
  param {
    lr_mult: 0.001
  }
  convolution_param {
    num_output: 512
    pad: 1
    kernel_size: 3
  }
}
layer {
  name: "relu5_3"
  type: "ReLU"
  bottom: "conv5_3"
  top: "conv5_3"
}
layer {
  name: "pool5"
  type: "Pooling"
  bottom: "conv5_3"
  top: "pool5"
  pooling_param {
    pool: MAX
    kernel_size: 2
    stride: 2
  }
}
layer {
  name: "fc6"
  type: "InnerProduct"
  bottom: "pool5"
  top: "fc6"
  param {
    lr_mult: 0.001
  }
  param {
    lr_mult: 0.001
  }
  inner_product_param {
    num_output: 4096
  }
}
layer {
  name: "relu6"
  type: "ReLU"
  bottom: "fc6"
  top: "fc6"
}
layer {
  name: "drop6"
  type: "Dropout"
  bottom: "fc6"
  top: "fc6"
  dropout_param {
    dropout_ratio: 0.5
  }
}
layer {
  name: "fc7"
  type: "InnerProduct"
  bottom: "fc6"
  top: "fc7"
  param {
    lr_mult: 0.001
  }
  param {
    lr_mult: 0.001
  }
  inner_product_param {
    num_output: 4096
  }
}
layer {
  name: "relu7"
  type: "ReLU"
  bottom: "fc7"
  top: "fc7"
}
layer {
  name: "drop7"
  type: "Dropout"
  bottom: "fc7"
  top: "fc7"
  dropout_param {
    dropout_ratio: 0.5
  }
}
layer {
  name: "fc8"
  type: "InnerProduct"
  bottom: "fc7"
  top: "fc8"
  param {
    lr_mult: 0.001
  }
  param {
    lr_mult: 0.001
  }
  inner_product_param {
    num_output: 1000
  }
}
layer {
  name: "loss"
  type: "SoftmaxWithLoss"
  bottom: "fc8"
  bottom: "label"
  top: "loss/loss"
}
I0122 23:50:18.060927 18161 layer_factory.hpp:77] Creating layer data
I0122 23:50:18.060958 18161 net.cpp:100] Creating Layer data
I0122 23:50:18.060966 18161 net.cpp:408] data -> data
I0122 23:50:18.060983 18161 net.cpp:408] data -> label
I0122 23:50:18.061368 18161 image_data_layer.cpp:38] Opening file images/list.txt
I0122 23:50:18.061417 18161 image_data_layer.cpp:58] A total of 16 images.
I0122 23:50:18.087322 18161 image_data_layer.cpp:85] output data size: 16,3,224,224
I0122 23:50:18.109742 18161 net.cpp:150] Setting up data
I0122 23:50:18.109786 18161 net.cpp:157] Top shape: 16 3 224 224 (2408448)
I0122 23:50:18.109797 18161 net.cpp:157] Top shape: 16 (16)
I0122 23:50:18.109803 18161 net.cpp:165] Memory required for data: 9633856
I0122 23:50:18.109817 18161 layer_factory.hpp:77] Creating layer conv1_1
I0122 23:50:18.109861 18161 net.cpp:100] Creating Layer conv1_1
I0122 23:50:18.109871 18161 net.cpp:434] conv1_1 <- data
I0122 23:50:18.109891 18161 net.cpp:408] conv1_1 -> conv1_1
I0122 23:50:18.289921 18161 net.cpp:150] Setting up conv1_1
I0122 23:50:18.289961 18161 net.cpp:157] Top shape: 16 64 224 224 (51380224)
I0122 23:50:18.289966 18161 net.cpp:165] Memory required for data: 215154752
I0122 23:50:18.289984 18161 layer_factory.hpp:77] Creating layer relu1_1
I0122 23:50:18.289996 18161 net.cpp:100] Creating Layer relu1_1
I0122 23:50:18.290001 18161 net.cpp:434] relu1_1 <- conv1_1
I0122 23:50:18.290009 18161 net.cpp:395] relu1_1 -> conv1_1 (in-place)
I0122 23:50:18.290186 18161 net.cpp:150] Setting up relu1_1
I0122 23:50:18.290196 18161 net.cpp:157] Top shape: 16 64 224 224 (51380224)
I0122 23:50:18.290199 18161 net.cpp:165] Memory required for data: 420675648
I0122 23:50:18.290204 18161 layer_factory.hpp:77] Creating layer conv1_2
I0122 23:50:18.290215 18161 net.cpp:100] Creating Layer conv1_2
I0122 23:50:18.290218 18161 net.cpp:434] conv1_2 <- conv1_1
I0122 23:50:18.290227 18161 net.cpp:408] conv1_2 -> conv1_2
I0122 23:50:18.291115 18161 net.cpp:150] Setting up conv1_2
I0122 23:50:18.291131 18161 net.cpp:157] Top shape: 16 64 224 224 (51380224)
I0122 23:50:18.291134 18161 net.cpp:165] Memory required for data: 626196544
I0122 23:50:18.291146 18161 layer_factory.hpp:77] Creating layer relu1_2
I0122 23:50:18.291154 18161 net.cpp:100] Creating Layer relu1_2
I0122 23:50:18.291158 18161 net.cpp:434] relu1_2 <- conv1_2
I0122 23:50:18.291163 18161 net.cpp:395] relu1_2 -> conv1_2 (in-place)
I0122 23:50:18.291404 18161 net.cpp:150] Setting up relu1_2
I0122 23:50:18.291419 18161 net.cpp:157] Top shape: 16 64 224 224 (51380224)
I0122 23:50:18.291421 18161 net.cpp:165] Memory required for data: 831717440
I0122 23:50:18.291425 18161 layer_factory.hpp:77] Creating layer pool1
I0122 23:50:18.291435 18161 net.cpp:100] Creating Layer pool1
I0122 23:50:18.291438 18161 net.cpp:434] pool1 <- conv1_2
I0122 23:50:18.291443 18161 net.cpp:408] pool1 -> pool1
I0122 23:50:18.291496 18161 net.cpp:150] Setting up pool1
I0122 23:50:18.291502 18161 net.cpp:157] Top shape: 16 64 112 112 (12845056)
I0122 23:50:18.291507 18161 net.cpp:165] Memory required for data: 883097664
I0122 23:50:18.291509 18161 layer_factory.hpp:77] Creating layer conv2_1
I0122 23:50:18.291518 18161 net.cpp:100] Creating Layer conv2_1
I0122 23:50:18.291522 18161 net.cpp:434] conv2_1 <- pool1
I0122 23:50:18.291529 18161 net.cpp:408] conv2_1 -> conv2_1
I0122 23:50:18.293869 18161 net.cpp:150] Setting up conv2_1
I0122 23:50:18.293885 18161 net.cpp:157] Top shape: 16 128 112 112 (25690112)
I0122 23:50:18.293889 18161 net.cpp:165] Memory required for data: 985858112
I0122 23:50:18.293900 18161 layer_factory.hpp:77] Creating layer relu2_1
I0122 23:50:18.293908 18161 net.cpp:100] Creating Layer relu2_1
I0122 23:50:18.293913 18161 net.cpp:434] relu2_1 <- conv2_1
I0122 23:50:18.293918 18161 net.cpp:395] relu2_1 -> conv2_1 (in-place)
I0122 23:50:18.294092 18161 net.cpp:150] Setting up relu2_1
I0122 23:50:18.294102 18161 net.cpp:157] Top shape: 16 128 112 112 (25690112)
I0122 23:50:18.294106 18161 net.cpp:165] Memory required for data: 1088618560
I0122 23:50:18.294111 18161 layer_factory.hpp:77] Creating layer conv2_2
I0122 23:50:18.294121 18161 net.cpp:100] Creating Layer conv2_2
I0122 23:50:18.294126 18161 net.cpp:434] conv2_2 <- conv2_1
I0122 23:50:18.294131 18161 net.cpp:408] conv2_2 -> conv2_2
I0122 23:50:18.295095 18161 net.cpp:150] Setting up conv2_2
I0122 23:50:18.295111 18161 net.cpp:157] Top shape: 16 128 112 112 (25690112)
I0122 23:50:18.295115 18161 net.cpp:165] Memory required for data: 1191379008
I0122 23:50:18.295122 18161 layer_factory.hpp:77] Creating layer relu2_2
I0122 23:50:18.295128 18161 net.cpp:100] Creating Layer relu2_2
I0122 23:50:18.295133 18161 net.cpp:434] relu2_2 <- conv2_2
I0122 23:50:18.295138 18161 net.cpp:395] relu2_2 -> conv2_2 (in-place)
I0122 23:50:18.295302 18161 net.cpp:150] Setting up relu2_2
I0122 23:50:18.295318 18161 net.cpp:157] Top shape: 16 128 112 112 (25690112)
I0122 23:50:18.295330 18161 net.cpp:165] Memory required for data: 1294139456
I0122 23:50:18.295333 18161 layer_factory.hpp:77] Creating layer pool2
I0122 23:50:18.295341 18161 net.cpp:100] Creating Layer pool2
I0122 23:50:18.295343 18161 net.cpp:434] pool2 <- conv2_2
I0122 23:50:18.295351 18161 net.cpp:408] pool2 -> pool2
I0122 23:50:18.295392 18161 net.cpp:150] Setting up pool2
I0122 23:50:18.295397 18161 net.cpp:157] Top shape: 16 128 56 56 (6422528)
I0122 23:50:18.295402 18161 net.cpp:165] Memory required for data: 1319829568
I0122 23:50:18.295404 18161 layer_factory.hpp:77] Creating layer conv3_1
I0122 23:50:18.295414 18161 net.cpp:100] Creating Layer conv3_1
I0122 23:50:18.295418 18161 net.cpp:434] conv3_1 <- pool2
I0122 23:50:18.295423 18161 net.cpp:408] conv3_1 -> conv3_1
I0122 23:50:18.297173 18161 net.cpp:150] Setting up conv3_1
I0122 23:50:18.297188 18161 net.cpp:157] Top shape: 16 256 56 56 (12845056)
I0122 23:50:18.297191 18161 net.cpp:165] Memory required for data: 1371209792
I0122 23:50:18.297201 18161 layer_factory.hpp:77] Creating layer relu3_1
I0122 23:50:18.297207 18161 net.cpp:100] Creating Layer relu3_1
I0122 23:50:18.297211 18161 net.cpp:434] relu3_1 <- conv3_1
I0122 23:50:18.297219 18161 net.cpp:395] relu3_1 -> conv3_1 (in-place)
I0122 23:50:18.297467 18161 net.cpp:150] Setting up relu3_1
I0122 23:50:18.297479 18161 net.cpp:157] Top shape: 16 256 56 56 (12845056)
I0122 23:50:18.297482 18161 net.cpp:165] Memory required for data: 1422590016
I0122 23:50:18.297504 18161 layer_factory.hpp:77] Creating layer conv3_2
I0122 23:50:18.297516 18161 net.cpp:100] Creating Layer conv3_2
I0122 23:50:18.297520 18161 net.cpp:434] conv3_2 <- conv3_1
I0122 23:50:18.297528 18161 net.cpp:408] conv3_2 -> conv3_2
I0122 23:50:18.300084 18161 net.cpp:150] Setting up conv3_2
I0122 23:50:18.300101 18161 net.cpp:157] Top shape: 16 256 56 56 (12845056)
I0122 23:50:18.300104 18161 net.cpp:165] Memory required for data: 1473970240
I0122 23:50:18.300112 18161 layer_factory.hpp:77] Creating layer relu3_2
I0122 23:50:18.300117 18161 net.cpp:100] Creating Layer relu3_2
I0122 23:50:18.300122 18161 net.cpp:434] relu3_2 <- conv3_2
I0122 23:50:18.300128 18161 net.cpp:395] relu3_2 -> conv3_2 (in-place)
I0122 23:50:18.300287 18161 net.cpp:150] Setting up relu3_2
I0122 23:50:18.300295 18161 net.cpp:157] Top shape: 16 256 56 56 (12845056)
I0122 23:50:18.300302 18161 net.cpp:165] Memory required for data: 1525350464
I0122 23:50:18.300305 18161 layer_factory.hpp:77] Creating layer conv3_3
I0122 23:50:18.300315 18161 net.cpp:100] Creating Layer conv3_3
I0122 23:50:18.300319 18161 net.cpp:434] conv3_3 <- conv3_2
I0122 23:50:18.300326 18161 net.cpp:408] conv3_3 -> conv3_3
I0122 23:50:18.302893 18161 net.cpp:150] Setting up conv3_3
I0122 23:50:18.302911 18161 net.cpp:157] Top shape: 16 256 56 56 (12845056)
I0122 23:50:18.302914 18161 net.cpp:165] Memory required for data: 1576730688
I0122 23:50:18.302922 18161 layer_factory.hpp:77] Creating layer relu3_3
I0122 23:50:18.302932 18161 net.cpp:100] Creating Layer relu3_3
I0122 23:50:18.302937 18161 net.cpp:434] relu3_3 <- conv3_3
I0122 23:50:18.302942 18161 net.cpp:395] relu3_3 -> conv3_3 (in-place)
I0122 23:50:18.303108 18161 net.cpp:150] Setting up relu3_3
I0122 23:50:18.303117 18161 net.cpp:157] Top shape: 16 256 56 56 (12845056)
I0122 23:50:18.303122 18161 net.cpp:165] Memory required for data: 1628110912
I0122 23:50:18.303124 18161 layer_factory.hpp:77] Creating layer pool3
I0122 23:50:18.303130 18161 net.cpp:100] Creating Layer pool3
I0122 23:50:18.303133 18161 net.cpp:434] pool3 <- conv3_3
I0122 23:50:18.303143 18161 net.cpp:408] pool3 -> pool3
I0122 23:50:18.303185 18161 net.cpp:150] Setting up pool3
I0122 23:50:18.303194 18161 net.cpp:157] Top shape: 16 256 28 28 (3211264)
I0122 23:50:18.303197 18161 net.cpp:165] Memory required for data: 1640955968
I0122 23:50:18.303200 18161 layer_factory.hpp:77] Creating layer conv4_1
I0122 23:50:18.303207 18161 net.cpp:100] Creating Layer conv4_1
I0122 23:50:18.303210 18161 net.cpp:434] conv4_1 <- pool3
I0122 23:50:18.303222 18161 net.cpp:408] conv4_1 -> conv4_1
I0122 23:50:18.308117 18161 net.cpp:150] Setting up conv4_1
I0122 23:50:18.308135 18161 net.cpp:157] Top shape: 16 512 28 28 (6422528)
I0122 23:50:18.308140 18161 net.cpp:165] Memory required for data: 1666646080
I0122 23:50:18.308146 18161 layer_factory.hpp:77] Creating layer relu4_1
I0122 23:50:18.308153 18161 net.cpp:100] Creating Layer relu4_1
I0122 23:50:18.308157 18161 net.cpp:434] relu4_1 <- conv4_1
I0122 23:50:18.308162 18161 net.cpp:395] relu4_1 -> conv4_1 (in-place)
I0122 23:50:18.308420 18161 net.cpp:150] Setting up relu4_1
I0122 23:50:18.308434 18161 net.cpp:157] Top shape: 16 512 28 28 (6422528)
I0122 23:50:18.308436 18161 net.cpp:165] Memory required for data: 1692336192
I0122 23:50:18.308440 18161 layer_factory.hpp:77] Creating layer conv4_2
I0122 23:50:18.308450 18161 net.cpp:100] Creating Layer conv4_2
I0122 23:50:18.308454 18161 net.cpp:434] conv4_2 <- conv4_1
I0122 23:50:18.308459 18161 net.cpp:408] conv4_2 -> conv4_2
I0122 23:50:18.315747 18161 net.cpp:150] Setting up conv4_2
I0122 23:50:18.315767 18161 net.cpp:157] Top shape: 16 512 28 28 (6422528)
I0122 23:50:18.315770 18161 net.cpp:165] Memory required for data: 1718026304
I0122 23:50:18.315781 18161 layer_factory.hpp:77] Creating layer relu4_2
I0122 23:50:18.315790 18161 net.cpp:100] Creating Layer relu4_2
I0122 23:50:18.315794 18161 net.cpp:434] relu4_2 <- conv4_2
I0122 23:50:18.315799 18161 net.cpp:395] relu4_2 -> conv4_2 (in-place)
I0122 23:50:18.315963 18161 net.cpp:150] Setting up relu4_2
I0122 23:50:18.315974 18161 net.cpp:157] Top shape: 16 512 28 28 (6422528)
I0122 23:50:18.315979 18161 net.cpp:165] Memory required for data: 1743716416
I0122 23:50:18.315981 18161 layer_factory.hpp:77] Creating layer conv4_3
I0122 23:50:18.315990 18161 net.cpp:100] Creating Layer conv4_3
I0122 23:50:18.315994 18161 net.cpp:434] conv4_3 <- conv4_2
I0122 23:50:18.315999 18161 net.cpp:408] conv4_3 -> conv4_3
I0122 23:50:18.346637 18161 net.cpp:150] Setting up conv4_3
I0122 23:50:18.346709 18161 net.cpp:157] Top shape: 16 512 28 28 (6422528)
I0122 23:50:18.346714 18161 net.cpp:165] Memory required for data: 1769406528
I0122 23:50:18.346721 18161 layer_factory.hpp:77] Creating layer relu4_3
I0122 23:50:18.346729 18161 net.cpp:100] Creating Layer relu4_3
I0122 23:50:18.346734 18161 net.cpp:434] relu4_3 <- conv4_3
I0122 23:50:18.346738 18161 net.cpp:395] relu4_3 -> conv4_3 (in-place)
I0122 23:50:18.346907 18161 net.cpp:150] Setting up relu4_3
I0122 23:50:18.346916 18161 net.cpp:157] Top shape: 16 512 28 28 (6422528)
I0122 23:50:18.346920 18161 net.cpp:165] Memory required for data: 1795096640
I0122 23:50:18.346923 18161 layer_factory.hpp:77] Creating layer pool4
I0122 23:50:18.346930 18161 net.cpp:100] Creating Layer pool4
I0122 23:50:18.346935 18161 net.cpp:434] pool4 <- conv4_3
I0122 23:50:18.346940 18161 net.cpp:408] pool4 -> pool4
I0122 23:50:18.346983 18161 net.cpp:150] Setting up pool4
I0122 23:50:18.346990 18161 net.cpp:157] Top shape: 16 512 14 14 (1605632)
I0122 23:50:18.346993 18161 net.cpp:165] Memory required for data: 1801519168
I0122 23:50:18.346997 18161 layer_factory.hpp:77] Creating layer conv5_1
I0122 23:50:18.347005 18161 net.cpp:100] Creating Layer conv5_1
I0122 23:50:18.347009 18161 net.cpp:434] conv5_1 <- pool4
I0122 23:50:18.347013 18161 net.cpp:408] conv5_1 -> conv5_1
I0122 23:50:18.355082 18161 net.cpp:150] Setting up conv5_1
I0122 23:50:18.355101 18161 net.cpp:157] Top shape: 16 512 14 14 (1605632)
I0122 23:50:18.355104 18161 net.cpp:165] Memory required for data: 1807941696
I0122 23:50:18.355113 18161 layer_factory.hpp:77] Creating layer relu5_1
I0122 23:50:18.355121 18161 net.cpp:100] Creating Layer relu5_1
I0122 23:50:18.355125 18161 net.cpp:434] relu5_1 <- conv5_1
I0122 23:50:18.355130 18161 net.cpp:395] relu5_1 -> conv5_1 (in-place)
I0122 23:50:18.355389 18161 net.cpp:150] Setting up relu5_1
I0122 23:50:18.355402 18161 net.cpp:157] Top shape: 16 512 14 14 (1605632)
I0122 23:50:18.355406 18161 net.cpp:165] Memory required for data: 1814364224
I0122 23:50:18.355417 18161 layer_factory.hpp:77] Creating layer conv5_2
I0122 23:50:18.355434 18161 net.cpp:100] Creating Layer conv5_2
I0122 23:50:18.355438 18161 net.cpp:434] conv5_2 <- conv5_1
I0122 23:50:18.355446 18161 net.cpp:408] conv5_2 -> conv5_2
I0122 23:50:18.362792 18161 net.cpp:150] Setting up conv5_2
I0122 23:50:18.362810 18161 net.cpp:157] Top shape: 16 512 14 14 (1605632)
I0122 23:50:18.362814 18161 net.cpp:165] Memory required for data: 1820786752
I0122 23:50:18.362821 18161 layer_factory.hpp:77] Creating layer relu5_2
I0122 23:50:18.362828 18161 net.cpp:100] Creating Layer relu5_2
I0122 23:50:18.362833 18161 net.cpp:434] relu5_2 <- conv5_2
I0122 23:50:18.362838 18161 net.cpp:395] relu5_2 -> conv5_2 (in-place)
I0122 23:50:18.363003 18161 net.cpp:150] Setting up relu5_2
I0122 23:50:18.363013 18161 net.cpp:157] Top shape: 16 512 14 14 (1605632)
I0122 23:50:18.363015 18161 net.cpp:165] Memory required for data: 1827209280
I0122 23:50:18.363018 18161 layer_factory.hpp:77] Creating layer conv5_3
I0122 23:50:18.363029 18161 net.cpp:100] Creating Layer conv5_3
I0122 23:50:18.363032 18161 net.cpp:434] conv5_3 <- conv5_2
I0122 23:50:18.363039 18161 net.cpp:408] conv5_3 -> conv5_3
I0122 23:50:18.370498 18161 net.cpp:150] Setting up conv5_3
I0122 23:50:18.370517 18161 net.cpp:157] Top shape: 16 512 14 14 (1605632)
I0122 23:50:18.370522 18161 net.cpp:165] Memory required for data: 1833631808
I0122 23:50:18.370528 18161 layer_factory.hpp:77] Creating layer relu5_3
I0122 23:50:18.370535 18161 net.cpp:100] Creating Layer relu5_3
I0122 23:50:18.370540 18161 net.cpp:434] relu5_3 <- conv5_3
I0122 23:50:18.370548 18161 net.cpp:395] relu5_3 -> conv5_3 (in-place)
I0122 23:50:18.370731 18161 net.cpp:150] Setting up relu5_3
I0122 23:50:18.370741 18161 net.cpp:157] Top shape: 16 512 14 14 (1605632)
I0122 23:50:18.370744 18161 net.cpp:165] Memory required for data: 1840054336
I0122 23:50:18.370748 18161 layer_factory.hpp:77] Creating layer pool5
I0122 23:50:18.370757 18161 net.cpp:100] Creating Layer pool5
I0122 23:50:18.370761 18161 net.cpp:434] pool5 <- conv5_3
I0122 23:50:18.370766 18161 net.cpp:408] pool5 -> pool5
I0122 23:50:18.370815 18161 net.cpp:150] Setting up pool5
I0122 23:50:18.370821 18161 net.cpp:157] Top shape: 16 512 7 7 (401408)
I0122 23:50:18.370824 18161 net.cpp:165] Memory required for data: 1841659968
I0122 23:50:18.370827 18161 layer_factory.hpp:77] Creating layer fc6
I0122 23:50:18.370841 18161 net.cpp:100] Creating Layer fc6
I0122 23:50:18.370844 18161 net.cpp:434] fc6 <- pool5
I0122 23:50:18.370849 18161 net.cpp:408] fc6 -> fc6
I0122 23:50:18.744704 18161 net.cpp:150] Setting up fc6
I0122 23:50:18.744751 18161 net.cpp:157] Top shape: 16 4096 (65536)
I0122 23:50:18.744755 18161 net.cpp:165] Memory required for data: 1841922112
I0122 23:50:18.744766 18161 layer_factory.hpp:77] Creating layer relu6
I0122 23:50:18.744777 18161 net.cpp:100] Creating Layer relu6
I0122 23:50:18.744783 18161 net.cpp:434] relu6 <- fc6
I0122 23:50:18.744792 18161 net.cpp:395] relu6 -> fc6 (in-place)
I0122 23:50:18.745199 18161 net.cpp:150] Setting up relu6
I0122 23:50:18.745213 18161 net.cpp:157] Top shape: 16 4096 (65536)
I0122 23:50:18.745215 18161 net.cpp:165] Memory required for data: 1842184256
I0122 23:50:18.745219 18161 layer_factory.hpp:77] Creating layer drop6
I0122 23:50:18.745229 18161 net.cpp:100] Creating Layer drop6
I0122 23:50:18.745232 18161 net.cpp:434] drop6 <- fc6
I0122 23:50:18.745239 18161 net.cpp:395] drop6 -> fc6 (in-place)
I0122 23:50:18.745275 18161 net.cpp:150] Setting up drop6
I0122 23:50:18.745283 18161 net.cpp:157] Top shape: 16 4096 (65536)
I0122 23:50:18.745286 18161 net.cpp:165] Memory required for data: 1842446400
I0122 23:50:18.745290 18161 layer_factory.hpp:77] Creating layer fc7
I0122 23:50:18.745297 18161 net.cpp:100] Creating Layer fc7
I0122 23:50:18.745301 18161 net.cpp:434] fc7 <- fc6
I0122 23:50:18.745308 18161 net.cpp:408] fc7 -> fc7
I0122 23:50:18.796663 18161 net.cpp:150] Setting up fc7
I0122 23:50:18.796701 18161 net.cpp:157] Top shape: 16 4096 (65536)
I0122 23:50:18.796705 18161 net.cpp:165] Memory required for data: 1842708544
I0122 23:50:18.796722 18161 layer_factory.hpp:77] Creating layer relu7
I0122 23:50:18.796741 18161 net.cpp:100] Creating Layer relu7
I0122 23:50:18.796746 18161 net.cpp:434] relu7 <- fc7
I0122 23:50:18.796753 18161 net.cpp:395] relu7 -> fc7 (in-place)
I0122 23:50:18.797919 18161 net.cpp:150] Setting up relu7
I0122 23:50:18.797933 18161 net.cpp:157] Top shape: 16 4096 (65536)
I0122 23:50:18.797937 18161 net.cpp:165] Memory required for data: 1842970688
I0122 23:50:18.797941 18161 layer_factory.hpp:77] Creating layer drop7
I0122 23:50:18.797948 18161 net.cpp:100] Creating Layer drop7
I0122 23:50:18.797952 18161 net.cpp:434] drop7 <- fc7
I0122 23:50:18.797957 18161 net.cpp:395] drop7 -> fc7 (in-place)
I0122 23:50:18.797991 18161 net.cpp:150] Setting up drop7
I0122 23:50:18.797998 18161 net.cpp:157] Top shape: 16 4096 (65536)
I0122 23:50:18.798002 18161 net.cpp:165] Memory required for data: 1843232832
I0122 23:50:18.798004 18161 layer_factory.hpp:77] Creating layer fc8
I0122 23:50:18.798013 18161 net.cpp:100] Creating Layer fc8
I0122 23:50:18.798017 18161 net.cpp:434] fc8 <- fc7
I0122 23:50:18.798022 18161 net.cpp:408] fc8 -> fc8
I0122 23:50:18.811013 18161 net.cpp:150] Setting up fc8
I0122 23:50:18.811033 18161 net.cpp:157] Top shape: 16 1000 (16000)
I0122 23:50:18.811036 18161 net.cpp:165] Memory required for data: 1843296832
I0122 23:50:18.811044 18161 layer_factory.hpp:77] Creating layer loss
I0122 23:50:18.811053 18161 net.cpp:100] Creating Layer loss
I0122 23:50:18.811058 18161 net.cpp:434] loss <- fc8
I0122 23:50:18.811063 18161 net.cpp:434] loss <- label
I0122 23:50:18.811069 18161 net.cpp:408] loss -> loss/loss
I0122 23:50:18.811080 18161 layer_factory.hpp:77] Creating layer loss
…
I0122 23:50:18.812578 18161 solver.cpp:181] Creating test net (#0) specified by net file: vgg16_train_val.prototxt
I0122 23:50:18.812623 18161 net.cpp:322] The NetState phase (1) differed from the phase (0) specified by a rule in layer data
I0122 23:50:18.812839 18161 net.cpp:58] Initializing net from parameters: 
name: "VGG_ILSVRC_16_layers"
state {
  phase: TEST
}
layer {
  name: "data"
  type: "ImageData"
  top: "data"
  top: "label"
  include {
    phase: TEST
  }
  transform_param {
    crop_size: 224
  }
  image_data_param {
    source: "images/list.txt"
    batch_size: 16
  }
}
layer {
  name: "conv1_1"
  type: "Convolution"
  bottom: "data"
  top: "conv1_1"
  param {
    lr_mult: 0.001
  }
  param {
    lr_mult: 0.001
  }
  convolution_param {
    num_output: 64
    pad: 1
    kernel_size: 3
  }
}
layer {
  name: "relu1_1"
  type: "ReLU"
  bottom: "conv1_1"
  top: "conv1_1"
}
layer {
  name: "conv1_2"
  type: "Convolution"
  bottom: "conv1_1"
  top: "conv1_2"
  param {
    lr_mult: 0.001
  }
  param {
    lr_mult: 0.001
  }
  convolution_param {
    num_output: 64
    pad: 1
    kernel_size: 3
  }
}
layer {
  name: "relu1_2"
  type: "ReLU"
  bottom: "conv1_2"
  top: "conv1_2"
}
layer {
  name: "pool1"
  type: "Pooling"
  bottom: "conv1_2"
  top: "pool1"
  pooling_param {
    pool: MAX
    kernel_size: 2
    stride: 2
  }
}
layer {
  name: "conv2_1"
  type: "Convolution"
  bottom: "pool1"
  top: "conv2_1"
  param {
    lr_mult: 0.001
  }
  param {
    lr_mult: 0.001
  }
  convolution_param {
    num_output: 128
    pad: 1
    kernel_size: 3
  }
}
layer {
  name: "relu2_1"
  type: "ReLU"
  bottom: "conv2_1"
  top: "conv2_1"
}
layer {
  name: "conv2_2"
  type: "Convolution"
  bottom: "conv2_1"
  top: "conv2_2"
  param {
    lr_mult: 0.001
  }
  param {
    lr_mult: 0.001
  }
  convolution_param {
    num_output: 128
    pad: 1
    kernel_size: 3
  }
}
layer {
  name: "relu2_2"
  type: "ReLU"
  bottom: "conv2_2"
  top: "conv2_2"
}
layer {
  name: "pool2"
  type: "Pooling"
  bottom: "conv2_2"
  top: "pool2"
  pooling_param {
    pool: MAX
    kernel_size: 2
    stride: 2
  }
}
layer {
  name: "conv3_1"
  type: "Convolution"
  bottom: "pool2"
  top: "conv3_1"
  param {
    lr_mult: 0.001
  }
  param {
    lr_mult: 0.001
  }
  convolution_param {
    num_output: 256
    pad: 1
    kernel_size: 3
  }
}
layer {
  name: "relu3_1"
  type: "ReLU"
  bottom: "conv3_1"
  top: "conv3_1"
}
layer {
  name: "conv3_2"
  type: "Convolution"
  bottom: "conv3_1"
  top: "conv3_2"
  param {
    lr_mult: 0.001
  }
  param {
    lr_mult: 0.001
  }
  convolution_param {
    num_output: 256
    pad: 1
    kernel_size: 3
  }
}
layer {
  name: "relu3_2"
  type: "ReLU"
  bottom: "conv3_2"
  top: "conv3_2"
}
layer {
  name: "conv3_3"
  type: "Convolution"
  bottom: "conv3_2"
  top: "conv3_3"
  param {
    lr_mult: 0.001
  }
  param {
    lr_mult: 0.001
  }
  convolution_param {
    num_output: 256
    pad: 1
    kernel_size: 3
  }
}
layer {
  name: "relu3_3"
  type: "ReLU"
  bottom: "conv3_3"
  top: "conv3_3"
}
layer {
  name: "pool3"
  type: "Pooling"
  bottom: "conv3_3"
  top: "pool3"
  pooling_param {
    pool: MAX
    kernel_size: 2
    stride: 2
  }
}
layer {
  name: "conv4_1"
  type: "Convolution"
  bottom: "pool3"
  top: "conv4_1"
  param {
    lr_mult: 0.001
  }
  param {
    lr_mult: 0.001
  }
  convolution_param {
    num_output: 512
    pad: 1
    kernel_size: 3
  }
}
layer {
  name: "relu4_1"
  type: "ReLU"
  bottom: "conv4_1"
  top: "conv4_1"
}
layer {
  name: "conv4_2"
  type: "Convolution"
  bottom: "conv4_1"
  top: "conv4_2"
  param {
    lr_mult: 0.001
  }
  param {
    lr_mult: 0.001
  }
  convolution_param {
    num_output: 512
    pad: 1
    kernel_size: 3
  }
}
layer {
  name: "relu4_2"
  type: "ReLU"
  bottom: "conv4_2"
  top: "conv4_2"
}
layer {
  name: "conv4_3"
  type: "Convolution"
  bottom: "conv4_2"
  top: "conv4_3"
  param {
    lr_mult: 0.001
  }
  param {
    lr_mult: 0.001
  }
  convolution_param {
    num_output: 512
    pad: 1
    kernel_size: 3
  }
}
layer {
  name: "relu4_3"
  type: "ReLU"
  bottom: "conv4_3"
  top: "conv4_3"
}
layer {
  name: "pool4"
  type: "Pooling"
  bottom: "conv4_3"
  top: "pool4"
  pooling_param {
    pool: MAX
    kernel_size: 2
    stride: 2
  }
}
layer {
  name: "conv5_1"
  type: "Convolution"
  bottom: "pool4"
  top: "conv5_1"
  param {
    lr_mult: 0.001
  }
  param {
    lr_mult: 0.001
  }
  convolution_param {
    num_output: 512
    pad: 1
    kernel_size: 3
  }
}
layer {
  name: "relu5_1"
  type: "ReLU"
  bottom: "conv5_1"
  top: "conv5_1"
}
layer {
  name: "conv5_2"
  type: "Convolution"
  bottom: "conv5_1"
  top: "conv5_2"
  param {
    lr_mult: 0.001
  }
  param {
    lr_mult: 0.001
  }
  convolution_param {
    num_output: 512
    pad: 1
    kernel_size: 3
  }
}
layer {
  name: "relu5_2"
  type: "ReLU"
  bottom: "conv5_2"
  top: "conv5_2"
}
layer {
  name: "conv5_3"
  type: "Convolution"
  bottom: "conv5_2"
  top: "conv5_3"
  param {
    lr_mult: 0.001
  }
  param {
    lr_mult: 0.001
  }
  convolution_param {
    num_output: 512
    pad: 1
    kernel_size: 3
  }
}
layer {
  name: "relu5_3"
  type: "ReLU"
  bottom: "conv5_3"
  top: "conv5_3"
}
layer {
  name: "pool5"
  type: "Pooling"
  bottom: "conv5_3"
  top: "pool5"
  pooling_param {
    pool: MAX
    kernel_size: 2
    stride: 2
  }
}
layer {
  name: "fc6"
  type: "InnerProduct"
  bottom: "pool5"
  top: "fc6"
  param {
    lr_mult: 0.001
  }
  param {
    lr_mult: 0.001
  }
  inner_product_param {
    num_output: 4096
  }
}
layer {
  name: "relu6"
  type: "ReLU"
  bottom: "fc6"
  top: "fc6"
}
layer {
  name: "drop6"
  type: "Dropout"
  bottom: "fc6"
  top: "fc6"
  dropout_param {
    dropout_ratio: 0.5
  }
}
layer {
  name: "fc7"
  type: "InnerProduct"
  bottom: "fc6"
  top: "fc7"
  param {
    lr_mult: 0.001
  }
  param {
    lr_mult: 0.001
  }
  inner_product_param {
    num_output: 4096
  }
}
layer {
  name: "relu7"
  type: "ReLU"
  bottom: "fc7"
  top: "fc7"
}
layer {
  name: "drop7"
  type: "Dropout"
  bottom: "fc7"
  top: "fc7"
  dropout_param {
    dropout_ratio: 0.5
  }
}
layer {
  name: "fc8"
  type: "InnerProduct"
  bottom: "fc7"
  top: "fc8"
  param {
    lr_mult: 0.001
  }
  param {
    lr_mult: 0.001
  }
  inner_product_param {
    num_output: 1000
  }
}
layer {
  name: "loss"
  type: "SoftmaxWithLoss"
  bottom: "fc8"
  bottom: "label"
  top: "loss/loss"
}
layer {
  name: "accuracy/top1"
  type: "Accuracy"
  bottom: "fc8"
  bottom: "label"
  top: "accuracy@1"
  include {
    phase: TEST
  }
  accuracy_param {
    top_k: 1
  }
}
layer {
  name: "accuracy/top5"
  type: "Accuracy"
  bottom: "fc8"
  bottom: "label"
  top: "accuracy@5"
  include {
    phase: TEST
  }
  accuracy_param {
    top_k: 5
  }
}
I0122 23:50:18.812996 18161 layer_factory.hpp:77] Creating layer data
I0122 23:50:18.813014 18161 net.cpp:100] Creating Layer data
I0122 23:50:18.813024 18161 net.cpp:408] data -> data
I0122 23:50:18.813032 18161 net.cpp:408] data -> label
I0122 23:50:18.813040 18161 image_data_layer.cpp:38] Opening file images/list.txt
I0122 23:50:18.813067 18161 image_data_layer.cpp:58] A total of 16 images.
I0122 23:50:18.813519 18161 image_data_layer.cpp:85] output data size: 16,3,224,224
I0122 23:50:18.859083 18161 net.cpp:150] Setting up data
I0122 23:50:18.859119 18161 net.cpp:157] Top shape: 16 3 224 224 (2408448)
I0122 23:50:18.859128 18161 net.cpp:157] Top shape: 16 (16)
I0122 23:50:18.859133 18161 net.cpp:165] Memory required for data: 9633856
I0122 23:50:18.859143 18161 layer_factory.hpp:77] Creating layer label_data_1_split
I0122 23:50:18.859158 18161 net.cpp:100] Creating Layer label_data_1_split
I0122 23:50:18.859165 18161 net.cpp:434] label_data_1_split <- label
I0122 23:50:18.859177 18161 net.cpp:408] label_data_1_split -> label_data_1_split_0
I0122 23:50:18.859191 18161 net.cpp:408] label_data_1_split -> label_data_1_split_1
I0122 23:50:18.859201 18161 net.cpp:408] label_data_1_split -> label_data_1_split_2
I0122 23:50:18.859318 18161 net.cpp:150] Setting up label_data_1_split
I0122 23:50:18.859334 18161 net.cpp:157] Top shape: 16 (16)
I0122 23:50:18.859343 18161 net.cpp:157] Top shape: 16 (16)
I0122 23:50:18.859351 18161 net.cpp:157] Top shape: 16 (16)
I0122 23:50:18.859360 18161 net.cpp:165] Memory required for data: 9634048
I0122 23:50:18.859370 18161 layer_factory.hpp:77] Creating layer conv1_1
I0122 23:50:18.859390 18161 net.cpp:100] Creating Layer conv1_1
I0122 23:50:18.859396 18161 net.cpp:434] conv1_1 <- data
I0122 23:50:18.859407 18161 net.cpp:408] conv1_1 -> conv1_1
I0122 23:50:18.860991 18161 net.cpp:150] Setting up conv1_1
I0122 23:50:18.861014 18161 net.cpp:157] Top shape: 16 64 224 224 (51380224)
I0122 23:50:18.861021 18161 net.cpp:165] Memory required for data: 215154944
I0122 23:50:18.861037 18161 layer_factory.hpp:77] Creating layer relu1_1
I0122 23:50:18.861049 18161 net.cpp:100] Creating Layer relu1_1
I0122 23:50:18.861055 18161 net.cpp:434] relu1_1 <- conv1_1
I0122 23:50:18.861064 18161 net.cpp:395] relu1_1 -> conv1_1 (in-place)
I0122 23:50:18.862488 18161 net.cpp:150] Setting up relu1_1
I0122 23:50:18.862512 18161 net.cpp:157] Top shape: 16 64 224 224 (51380224)
I0122 23:50:18.862519 18161 net.cpp:165] Memory required for data: 420675840
I0122 23:50:18.862527 18161 layer_factory.hpp:77] Creating layer conv1_2
I0122 23:50:18.862542 18161 net.cpp:100] Creating Layer conv1_2
I0122 23:50:18.862550 18161 net.cpp:434] conv1_2 <- conv1_1
I0122 23:50:18.862561 18161 net.cpp:408] conv1_2 -> conv1_2
I0122 23:50:18.864868 18161 net.cpp:150] Setting up conv1_2
I0122 23:50:18.864890 18161 net.cpp:157] Top shape: 16 64 224 224 (51380224)
I0122 23:50:18.864897 18161 net.cpp:165] Memory required for data: 626196736
I0122 23:50:18.864912 18161 layer_factory.hpp:77] Creating layer relu1_2
I0122 23:50:18.864928 18161 net.cpp:100] Creating Layer relu1_2
I0122 23:50:18.864934 18161 net.cpp:434] relu1_2 <- conv1_2
I0122 23:50:18.864943 18161 net.cpp:395] relu1_2 -> conv1_2 (in-place)
I0122 23:50:18.865340 18161 net.cpp:150] Setting up relu1_2
I0122 23:50:18.865365 18161 net.cpp:157] Top shape: 16 64 224 224 (51380224)
I0122 23:50:18.865371 18161 net.cpp:165] Memory required for data: 831717632
I0122 23:50:18.865378 18161 layer_factory.hpp:77] Creating layer pool1
I0122 23:50:18.865389 18161 net.cpp:100] Creating Layer pool1
I0122 23:50:18.865396 18161 net.cpp:434] pool1 <- conv1_2
I0122 23:50:18.865406 18161 net.cpp:408] pool1 -> pool1
I0122 23:50:18.865481 18161 net.cpp:150] Setting up pool1
I0122 23:50:18.865517 18161 net.cpp:157] Top shape: 16 64 112 112 (12845056)
I0122 23:50:18.865525 18161 net.cpp:165] Memory required for data: 883097856
I0122 23:50:18.865532 18161 layer_factory.hpp:77] Creating layer conv2_1
I0122 23:50:18.865545 18161 net.cpp:100] Creating Layer conv2_1
I0122 23:50:18.865552 18161 net.cpp:434] conv2_1 <- pool1
I0122 23:50:18.865563 18161 net.cpp:408] conv2_1 -> conv2_1
I0122 23:50:18.867926 18161 net.cpp:150] Setting up conv2_1
I0122 23:50:18.867961 18161 net.cpp:157] Top shape: 16 128 112 112 (25690112)
I0122 23:50:18.867969 18161 net.cpp:165] Memory required for data: 985858304
I0122 23:50:18.867983 18161 layer_factory.hpp:77] Creating layer relu2_1
I0122 23:50:18.867997 18161 net.cpp:100] Creating Layer relu2_1
I0122 23:50:18.868005 18161 net.cpp:434] relu2_1 <- conv2_1
I0122 23:50:18.868015 18161 net.cpp:395] relu2_1 -> conv2_1 (in-place)
I0122 23:50:18.868290 18161 net.cpp:150] Setting up relu2_1
I0122 23:50:18.868310 18161 net.cpp:157] Top shape: 16 128 112 112 (25690112)
I0122 23:50:18.868317 18161 net.cpp:165] Memory required for data: 1088618752
I0122 23:50:18.868326 18161 layer_factory.hpp:77] Creating layer conv2_2
I0122 23:50:18.868340 18161 net.cpp:100] Creating Layer conv2_2
I0122 23:50:18.868348 18161 net.cpp:434] conv2_2 <- conv2_1
I0122 23:50:18.868365 18161 net.cpp:408] conv2_2 -> conv2_2
I0122 23:50:18.869997 18161 net.cpp:150] Setting up conv2_2
I0122 23:50:18.870019 18161 net.cpp:157] Top shape: 16 128 112 112 (25690112)
I0122 23:50:18.870028 18161 net.cpp:165] Memory required for data: 1191379200
I0122 23:50:18.870040 18161 layer_factory.hpp:77] Creating layer relu2_2
I0122 23:50:18.870050 18161 net.cpp:100] Creating Layer relu2_2
I0122 23:50:18.870057 18161 net.cpp:434] relu2_2 <- conv2_2
I0122 23:50:18.870067 18161 net.cpp:395] relu2_2 -> conv2_2 (in-place)
I0122 23:50:18.870349 18161 net.cpp:150] Setting up relu2_2
I0122 23:50:18.870365 18161 net.cpp:157] Top shape: 16 128 112 112 (25690112)
I0122 23:50:18.870370 18161 net.cpp:165] Memory required for data: 1294139648
I0122 23:50:18.870378 18161 layer_factory.hpp:77] Creating layer pool2
I0122 23:50:18.870391 18161 net.cpp:100] Creating Layer pool2
I0122 23:50:18.870398 18161 net.cpp:434] pool2 <- conv2_2
I0122 23:50:18.870405 18161 net.cpp:408] pool2 -> pool2
I0122 23:50:18.870476 18161 net.cpp:150] Setting up pool2
I0122 23:50:18.870488 18161 net.cpp:157] Top shape: 16 128 56 56 (6422528)
I0122 23:50:18.870493 18161 net.cpp:165] Memory required for data: 1319829760
I0122 23:50:18.870499 18161 layer_factory.hpp:77] Creating layer conv3_1
I0122 23:50:18.870512 18161 net.cpp:100] Creating Layer conv3_1
I0122 23:50:18.870518 18161 net.cpp:434] conv3_1 <- pool2
I0122 23:50:18.870528 18161 net.cpp:408] conv3_1 -> conv3_1
I0122 23:50:18.873034 18161 net.cpp:150] Setting up conv3_1
I0122 23:50:18.873056 18161 net.cpp:157] Top shape: 16 256 56 56 (12845056)
I0122 23:50:18.873064 18161 net.cpp:165] Memory required for data: 1371209984
I0122 23:50:18.873080 18161 layer_factory.hpp:77] Creating layer relu3_1
I0122 23:50:18.873093 18161 net.cpp:100] Creating Layer relu3_1
I0122 23:50:18.873101 18161 net.cpp:434] relu3_1 <- conv3_1
I0122 23:50:18.873109 18161 net.cpp:395] relu3_1 -> conv3_1 (in-place)
I0122 23:50:18.873522 18161 net.cpp:150] Setting up relu3_1
I0122 23:50:18.873545 18161 net.cpp:157] Top shape: 16 256 56 56 (12845056)
I0122 23:50:18.873551 18161 net.cpp:165] Memory required for data: 1422590208
I0122 23:50:18.873558 18161 layer_factory.hpp:77] Creating layer conv3_2
I0122 23:50:18.873570 18161 net.cpp:100] Creating Layer conv3_2
I0122 23:50:18.873576 18161 net.cpp:434] conv3_2 <- conv3_1
I0122 23:50:18.873589 18161 net.cpp:408] conv3_2 -> conv3_2
I0122 23:50:18.877030 18161 net.cpp:150] Setting up conv3_2
I0122 23:50:18.877053 18161 net.cpp:157] Top shape: 16 256 56 56 (12845056)
I0122 23:50:18.877058 18161 net.cpp:165] Memory required for data: 1473970432
I0122 23:50:18.877073 18161 layer_factory.hpp:77] Creating layer relu3_2
I0122 23:50:18.877084 18161 net.cpp:100] Creating Layer relu3_2
I0122 23:50:18.877090 18161 net.cpp:434] relu3_2 <- conv3_2
I0122 23:50:18.877101 18161 net.cpp:395] relu3_2 -> conv3_2 (in-place)
I0122 23:50:18.877391 18161 net.cpp:150] Setting up relu3_2
I0122 23:50:18.877411 18161 net.cpp:157] Top shape: 16 256 56 56 (12845056)
I0122 23:50:18.877418 18161 net.cpp:165] Memory required for data: 1525350656
I0122 23:50:18.877424 18161 layer_factory.hpp:77] Creating layer conv3_3
I0122 23:50:18.877446 18161 net.cpp:100] Creating Layer conv3_3
I0122 23:50:18.877462 18161 net.cpp:434] conv3_3 <- conv3_2
I0122 23:50:18.877472 18161 net.cpp:408] conv3_3 -> conv3_3
I0122 23:50:18.880851 18161 net.cpp:150] Setting up conv3_3
I0122 23:50:18.880877 18161 net.cpp:157] Top shape: 16 256 56 56 (12845056)
I0122 23:50:18.880882 18161 net.cpp:165] Memory required for data: 1576730880
I0122 23:50:18.880894 18161 layer_factory.hpp:77] Creating layer relu3_3
I0122 23:50:18.880905 18161 net.cpp:100] Creating Layer relu3_3
I0122 23:50:18.880913 18161 net.cpp:434] relu3_3 <- conv3_3
I0122 23:50:18.880920 18161 net.cpp:395] relu3_3 -> conv3_3 (in-place)
I0122 23:50:18.882513 18161 net.cpp:150] Setting up relu3_3
I0122 23:50:18.882534 18161 net.cpp:157] Top shape: 16 256 56 56 (12845056)
I0122 23:50:18.882542 18161 net.cpp:165] Memory required for data: 1628111104
I0122 23:50:18.882550 18161 layer_factory.hpp:77] Creating layer pool3
I0122 23:50:18.882560 18161 net.cpp:100] Creating Layer pool3
I0122 23:50:18.882566 18161 net.cpp:434] pool3 <- conv3_3
I0122 23:50:18.882577 18161 net.cpp:408] pool3 -> pool3
I0122 23:50:18.882653 18161 net.cpp:150] Setting up pool3
I0122 23:50:18.882668 18161 net.cpp:157] Top shape: 16 256 28 28 (3211264)
I0122 23:50:18.882673 18161 net.cpp:165] Memory required for data: 1640956160
I0122 23:50:18.882679 18161 layer_factory.hpp:77] Creating layer conv4_1
I0122 23:50:18.882690 18161 net.cpp:100] Creating Layer conv4_1
I0122 23:50:18.882695 18161 net.cpp:434] conv4_1 <- pool3
I0122 23:50:18.882738 18161 net.cpp:408] conv4_1 -> conv4_1
I0122 23:50:18.887888 18161 net.cpp:150] Setting up conv4_1
I0122 23:50:18.887913 18161 net.cpp:157] Top shape: 16 512 28 28 (6422528)
I0122 23:50:18.887919 18161 net.cpp:165] Memory required for data: 1666646272
I0122 23:50:18.887930 18161 layer_factory.hpp:77] Creating layer relu4_1
I0122 23:50:18.887940 18161 net.cpp:100] Creating Layer relu4_1
I0122 23:50:18.887946 18161 net.cpp:434] relu4_1 <- conv4_1
I0122 23:50:18.887955 18161 net.cpp:395] relu4_1 -> conv4_1 (in-place)
I0122 23:50:18.888367 18161 net.cpp:150] Setting up relu4_1
I0122 23:50:18.888392 18161 net.cpp:157] Top shape: 16 512 28 28 (6422528)
I0122 23:50:18.888398 18161 net.cpp:165] Memory required for data: 1692336384
I0122 23:50:18.888406 18161 layer_factory.hpp:77] Creating layer conv4_2
I0122 23:50:18.888418 18161 net.cpp:100] Creating Layer conv4_2
I0122 23:50:18.888427 18161 net.cpp:434] conv4_2 <- conv4_1
I0122 23:50:18.888437 18161 net.cpp:408] conv4_2 -> conv4_2
I0122 23:50:18.897014 18161 net.cpp:150] Setting up conv4_2
I0122 23:50:18.897042 18161 net.cpp:157] Top shape: 16 512 28 28 (6422528)
I0122 23:50:18.897047 18161 net.cpp:165] Memory required for data: 1718026496
I0122 23:50:18.897065 18161 layer_factory.hpp:77] Creating layer relu4_2
I0122 23:50:18.897076 18161 net.cpp:100] Creating Layer relu4_2
I0122 23:50:18.897083 18161 net.cpp:434] relu4_2 <- conv4_2
I0122 23:50:18.897094 18161 net.cpp:395] relu4_2 -> conv4_2 (in-place)
I0122 23:50:18.897342 18161 net.cpp:150] Setting up relu4_2
I0122 23:50:18.897356 18161 net.cpp:157] Top shape: 16 512 28 28 (6422528)
I0122 23:50:18.897361 18161 net.cpp:165] Memory required for data: 1743716608
I0122 23:50:18.897367 18161 layer_factory.hpp:77] Creating layer conv4_3
I0122 23:50:18.897379 18161 net.cpp:100] Creating Layer conv4_3
I0122 23:50:18.897387 18161 net.cpp:434] conv4_3 <- conv4_2
I0122 23:50:18.897408 18161 net.cpp:408] conv4_3 -> conv4_3
I0122 23:50:18.905794 18161 net.cpp:150] Setting up conv4_3
I0122 23:50:18.905819 18161 net.cpp:157] Top shape: 16 512 28 28 (6422528)
I0122 23:50:18.905827 18161 net.cpp:165] Memory required for data: 1769406720
I0122 23:50:18.905838 18161 layer_factory.hpp:77] Creating layer relu4_3
I0122 23:50:18.905850 18161 net.cpp:100] Creating Layer relu4_3
I0122 23:50:18.905858 18161 net.cpp:434] relu4_3 <- conv4_3
I0122 23:50:18.905865 18161 net.cpp:395] relu4_3 -> conv4_3 (in-place)
I0122 23:50:18.907464 18161 net.cpp:150] Setting up relu4_3
I0122 23:50:18.907485 18161 net.cpp:157] Top shape: 16 512 28 28 (6422528)
I0122 23:50:18.907501 18161 net.cpp:165] Memory required for data: 1795096832
I0122 23:50:18.907519 18161 layer_factory.hpp:77] Creating layer pool4
I0122 23:50:18.907531 18161 net.cpp:100] Creating Layer pool4
I0122 23:50:18.907537 18161 net.cpp:434] pool4 <- conv4_3
I0122 23:50:18.907548 18161 net.cpp:408] pool4 -> pool4
I0122 23:50:18.907625 18161 net.cpp:150] Setting up pool4
I0122 23:50:18.907639 18161 net.cpp:157] Top shape: 16 512 14 14 (1605632)
I0122 23:50:18.907644 18161 net.cpp:165] Memory required for data: 1801519360
I0122 23:50:18.907649 18161 layer_factory.hpp:77] Creating layer conv5_1
I0122 23:50:18.907693 18161 net.cpp:100] Creating Layer conv5_1
I0122 23:50:18.907704 18161 net.cpp:434] conv5_1 <- pool4
I0122 23:50:18.907716 18161 net.cpp:408] conv5_1 -> conv5_1
I0122 23:50:18.916224 18161 net.cpp:150] Setting up conv5_1
I0122 23:50:18.916250 18161 net.cpp:157] Top shape: 16 512 14 14 (1605632)
I0122 23:50:18.916256 18161 net.cpp:165] Memory required for data: 1807941888
I0122 23:50:18.916267 18161 layer_factory.hpp:77] Creating layer relu5_1
I0122 23:50:18.916278 18161 net.cpp:100] Creating Layer relu5_1
I0122 23:50:18.916285 18161 net.cpp:434] relu5_1 <- conv5_1
I0122 23:50:18.916293 18161 net.cpp:395] relu5_1 -> conv5_1 (in-place)
I0122 23:50:18.916719 18161 net.cpp:150] Setting up relu5_1
I0122 23:50:18.916738 18161 net.cpp:157] Top shape: 16 512 14 14 (1605632)
I0122 23:50:18.916744 18161 net.cpp:165] Memory required for data: 1814364416
I0122 23:50:18.916751 18161 layer_factory.hpp:77] Creating layer conv5_2
I0122 23:50:18.916765 18161 net.cpp:100] Creating Layer conv5_2
I0122 23:50:18.916772 18161 net.cpp:434] conv5_2 <- conv5_1
I0122 23:50:18.916782 18161 net.cpp:408] conv5_2 -> conv5_2
I0122 23:50:18.925310 18161 net.cpp:150] Setting up conv5_2
I0122 23:50:18.925334 18161 net.cpp:157] Top shape: 16 512 14 14 (1605632)
I0122 23:50:18.925341 18161 net.cpp:165] Memory required for data: 1820786944
I0122 23:50:18.925353 18161 layer_factory.hpp:77] Creating layer relu5_2
I0122 23:50:18.925365 18161 net.cpp:100] Creating Layer relu5_2
I0122 23:50:18.925372 18161 net.cpp:434] relu5_2 <- conv5_2
I0122 23:50:18.925381 18161 net.cpp:395] relu5_2 -> conv5_2 (in-place)
I0122 23:50:18.925704 18161 net.cpp:150] Setting up relu5_2
I0122 23:50:18.925726 18161 net.cpp:157] Top shape: 16 512 14 14 (1605632)
I0122 23:50:18.925731 18161 net.cpp:165] Memory required for data: 1827209472
I0122 23:50:18.925739 18161 layer_factory.hpp:77] Creating layer conv5_3
I0122 23:50:18.925755 18161 net.cpp:100] Creating Layer conv5_3
I0122 23:50:18.925762 18161 net.cpp:434] conv5_3 <- conv5_2
I0122 23:50:18.925771 18161 net.cpp:408] conv5_3 -> conv5_3
I0122 23:50:18.933833 18161 net.cpp:150] Setting up conv5_3
I0122 23:50:18.933854 18161 net.cpp:157] Top shape: 16 512 14 14 (1605632)
I0122 23:50:18.933858 18161 net.cpp:165] Memory required for data: 1833632000
I0122 23:50:18.933866 18161 layer_factory.hpp:77] Creating layer relu5_3
I0122 23:50:18.933873 18161 net.cpp:100] Creating Layer relu5_3
I0122 23:50:18.933877 18161 net.cpp:434] relu5_3 <- conv5_3
I0122 23:50:18.933883 18161 net.cpp:395] relu5_3 -> conv5_3 (in-place)
I0122 23:50:18.934062 18161 net.cpp:150] Setting up relu5_3
I0122 23:50:18.934072 18161 net.cpp:157] Top shape: 16 512 14 14 (1605632)
I0122 23:50:18.934074 18161 net.cpp:165] Memory required for data: 1840054528
I0122 23:50:18.934078 18161 layer_factory.hpp:77] Creating layer pool5
I0122 23:50:18.934094 18161 net.cpp:100] Creating Layer pool5
I0122 23:50:18.934098 18161 net.cpp:434] pool5 <- conv5_3
I0122 23:50:18.934104 18161 net.cpp:408] pool5 -> pool5
I0122 23:50:18.934159 18161 net.cpp:150] Setting up pool5
I0122 23:50:18.934165 18161 net.cpp:157] Top shape: 16 512 7 7 (401408)
I0122 23:50:18.934168 18161 net.cpp:165] Memory required for data: 1841660160
I0122 23:50:18.934172 18161 layer_factory.hpp:77] Creating layer fc6
I0122 23:50:18.934180 18161 net.cpp:100] Creating Layer fc6
I0122 23:50:18.934183 18161 net.cpp:434] fc6 <- pool5
I0122 23:50:18.934190 18161 net.cpp:408] fc6 -> fc6
I0122 23:50:19.310019 18161 net.cpp:150] Setting up fc6
I0122 23:50:19.310080 18161 net.cpp:157] Top shape: 16 4096 (65536)
I0122 23:50:19.310083 18161 net.cpp:165] Memory required for data: 1841922304
I0122 23:50:19.310094 18161 layer_factory.hpp:77] Creating layer relu6
I0122 23:50:19.310106 18161 net.cpp:100] Creating Layer relu6
I0122 23:50:19.310111 18161 net.cpp:434] relu6 <- fc6
I0122 23:50:19.310117 18161 net.cpp:395] relu6 -> fc6 (in-place)
I0122 23:50:19.310546 18161 net.cpp:150] Setting up relu6
I0122 23:50:19.310561 18161 net.cpp:157] Top shape: 16 4096 (65536)
I0122 23:50:19.310565 18161 net.cpp:165] Memory required for data: 1842184448
I0122 23:50:19.310570 18161 layer_factory.hpp:77] Creating layer drop6
I0122 23:50:19.310577 18161 net.cpp:100] Creating Layer drop6
I0122 23:50:19.310581 18161 net.cpp:434] drop6 <- fc6
I0122 23:50:19.310587 18161 net.cpp:395] drop6 -> fc6 (in-place)
I0122 23:50:19.310626 18161 net.cpp:150] Setting up drop6
I0122 23:50:19.310632 18161 net.cpp:157] Top shape: 16 4096 (65536)
I0122 23:50:19.310636 18161 net.cpp:165] Memory required for data: 1842446592
I0122 23:50:19.310638 18161 layer_factory.hpp:77] Creating layer fc7
I0122 23:50:19.310647 18161 net.cpp:100] Creating Layer fc7
I0122 23:50:19.310652 18161 net.cpp:434] fc7 <- fc6
I0122 23:50:19.310657 18161 net.cpp:408] fc7 -> fc7
I0122 23:50:19.384810 18161 net.cpp:150] Setting up fc7
I0122 23:50:19.384853 18161 net.cpp:157] Top shape: 16 4096 (65536)
I0122 23:50:19.384857 18161 net.cpp:165] Memory required for data: 1842708736
I0122 23:50:19.384867 18161 layer_factory.hpp:77] Creating layer relu7
I0122 23:50:19.384878 18161 net.cpp:100] Creating Layer relu7
I0122 23:50:19.384883 18161 net.cpp:434] relu7 <- fc7
I0122 23:50:19.384892 18161 net.cpp:395] relu7 -> fc7 (in-place)
I0122 23:50:19.385382 18161 net.cpp:150] Setting up relu7
I0122 23:50:19.385396 18161 net.cpp:157] Top shape: 16 4096 (65536)
I0122 23:50:19.385399 18161 net.cpp:165] Memory required for data: 1842970880
I0122 23:50:19.385404 18161 layer_factory.hpp:77] Creating layer drop7
I0122 23:50:19.385412 18161 net.cpp:100] Creating Layer drop7
I0122 23:50:19.385416 18161 net.cpp:434] drop7 <- fc7
I0122 23:50:19.385423 18161 net.cpp:395] drop7 -> fc7 (in-place)
I0122 23:50:19.385463 18161 net.cpp:150] Setting up drop7
I0122 23:50:19.385470 18161 net.cpp:157] Top shape: 16 4096 (65536)
I0122 23:50:19.385473 18161 net.cpp:165] Memory required for data: 1843233024
I0122 23:50:19.385478 18161 layer_factory.hpp:77] Creating layer fc8
I0122 23:50:19.385485 18161 net.cpp:100] Creating Layer fc8
I0122 23:50:19.385504 18161 net.cpp:434] fc8 <- fc7
I0122 23:50:19.385512 18161 net.cpp:408] fc8 -> fc8
I0122 23:50:19.398586 18161 net.cpp:150] Setting up fc8
I0122 23:50:19.398612 18161 net.cpp:157] Top shape: 16 1000 (16000)
I0122 23:50:19.398615 18161 net.cpp:165] Memory required for data: 1843297024
I0122 23:50:19.398624 18161 layer_factory.hpp:77] Creating layer fc8_fc8_0_split
I0122 23:50:19.398633 18161 net.cpp:100] Creating Layer fc8_fc8_0_split
I0122 23:50:19.398638 18161 net.cpp:434] fc8_fc8_0_split <- fc8
I0122 23:50:19.398648 18161 net.cpp:408] fc8_fc8_0_split -> fc8_fc8_0_split_0
I0122 23:50:19.398655 18161 net.cpp:408] fc8_fc8_0_split -> fc8_fc8_0_split_1
I0122 23:50:19.398661 18161 net.cpp:408] fc8_fc8_0_split -> fc8_fc8_0_split_2
I0122 23:50:19.398727 18161 net.cpp:150] Setting up fc8_fc8_0_split
I0122 23:50:19.398736 18161 net.cpp:157] Top shape: 16 1000 (16000)
I0122 23:50:19.398741 18161 net.cpp:157] Top shape: 16 1000 (16000)
I0122 23:50:19.398743 18161 net.cpp:157] Top shape: 16 1000 (16000)
I0122 23:50:19.398747 18161 net.cpp:165] Memory required for data: 1843489024
I0122 23:50:19.398751 18161 layer_factory.hpp:77] Creating layer loss
I0122 23:50:19.398756 18161 net.cpp:100] Creating Layer loss
I0122 23:50:19.398761 18161 net.cpp:434] loss <- fc8_fc8_0_split_0
I0122 23:50:19.398764 18161 net.cpp:434] loss <- label_data_1_split_0
I0122 23:50:19.398769 18161 net.cpp:408] loss -> loss/loss
…
